test_linear.pth (torch, 1787 bytes, 3 tensors)

lin1.weight f4 [10, 3]
0	0x3ec33f42	0.381342
1	0xbedd0bb4	-0.4317299
2	0x3ef0e618	0.47050548
3	0x3ebd249b	0.3694199
4	0x3ef85e32	0.48509365
5	0xbee2a454	-0.44265997
6	0xbec669fa	-0.3875273
7	0x3e8ca8d7	0.27472565
8	0xbf09f7f1	-0.53893954
9	0x3f121529	0.5706354
10	0x3dfbaf63	0.12289312
11	0x3d98b329	0.07456047
12	0xbefccaf2	-0.49373585
13	0x3e3c678d	0.18398876
14	0x3e7e39c6	0.24826726
15	0x3dbb9892	0.0915996
16	0x3f0e29e2	0.5553266
17	0x3e318cb1	0.17338826
18	0xbf030f7d	-0.5119551
19	0x3ef85f73	0.48510322
20	0x3e48bb70	0.19602752
21	0xbe8d04c8	-0.2754271
22	0xbf07c420	-0.5303364
23	0x3ea883db	0.32913098
24	0x3f0c7593	0.54866904
25	0xbef230f3	-0.4730297
26	0x3d013d46	0.031552576
27	0x3e541bcf	0.20713733
28	0xbe8b9867	-0.2726471
29	0xbe015c45	-0.12632854

lin1.bias f4 [10]
0	0xbec56217	-0.385514
1	0xbe8bc077	-0.27295277
2	0xbf06bef6	-0.52635133
3	0xbc5b3a7d	-0.013380644
4	0x3eaf4556	0.34232587
5	0x3e8fc604	0.2808076
6	0x3f0ad89c	0.5423677
7	0xbf01cea6	-0.50705945
8	0xbd917c8a	-0.07103832
9	0x3f0fe776	0.56212556

lin2.weight f4 [1, 10]
0	0x3d54197e	0.051782124
1	0xbdb6a19f	-0.089175455
2	0xbe91d104	-0.2847978
3	0x3e16afbf	0.1471548
4	0x3e75d547	0.2400714
5	0x3e81d48e	0.2535748
6	0x3e878b11	0.26473287
7	0x3d7d9587	0.06191018
8	0x3e66cbff	0.22538756
9	0xbda304e5	-0.07959918
