test.pth (torch, 77261 bytes, 10 tensors)

conv1.weight f4 [64, 3, 3, 3]
0.12711401 -0.14390998 0.15683515 0.12313998 0.1616979 -0.14755332 -0.12917577 0.09157522
-0.17964652 0.19021179 0.040964372 0.02485349 -0.16457863 0.061329592 0.08275575 0.030533202
0.18510887 0.05779609 -0.1706517 0.16170108 0.06534251 -0.09180904 -0.1767788 0.10971033
0.18288967 -0.15767658 0.0105175255 0.06904578 -0.090882376 -0.042109516 -0.12850468 -0.090984255
-0.17545044 -0.0044602146 0.11410862 0.09360254 0.18078923 -0.16901982 -0.02367944 0.1873752
0.031513598 -0.054270457 -0.17332242 0.089555554 0.1461028 0.15432072 0.16111128 0.037677336
0.1371665 -0.048442516 0.15629238 -0.016465679 -0.03968672 -0.095664695 0.1024664 0.07786632
0.122413956 -0.12298877 -0.10232565 0.18212016 -0.10681773 -0.10975772 -0.05149206 -0.0622017
-0.13087969 0.1555256 0.021451697 0.0877407 0.14274843 -0.12470713 0.14691362 -0.09640863
-0.030639766 0.14564092 0.17743409 0.16894287 0.110683195 0.17887565 -0.06934081 -0.012249221
-0.06582403 -0.014144768 -0.023400744 0.102821305 0.13227917 -0.13858584 -0.10627084 -0.059188843
0.025726382 -0.074705645 -0.119694866 -0.035149857 -0.09391671 0.0052984175 -0.14246297 -0.04810922
-0.07100873 -0.026583856 0.15121308 0.12619394 -0.062104657 -0.17644262 -0.13765714 -0.14764461
-0.018260052 -0.0854648 -0.1344935 0.042669892 0.012384463 -0.02885154 -0.06976342 0.16402826
-0.1854002 -0.0045850184 0.089338824 0.13587971 -0.16742754 -0.030135894 0.16050026 0.031679925
0.05819225 -0.08503658 0.13356541 -0.07216778 -0.10363402 0.17456438 0.050980758 -0.001328539
-0.13412118 -0.0425982 -0.14784038 -0.12948622 -0.027560925 0.0372051 -0.1576887 0.18704304
0.14154263 -0.17910142 0.12029581 -0.11548369 -0.15682463 0.1802975 -0.077388376 -0.06383991
0.023982458 0.10877634 0.0148043 -0.051718637 0.016317153 -0.09971 -0.13998665 0.050109677
0.020279026 0.09562587 -0.07149377 -0.19021496 -0.04775307 -0.18621686 -0.015152121 0.094012216
0.01780624 0.11042301 0.03589597 0.082525186 0.17323224 0.028635476 0.032026164 -0.078087
0.120004974 0.1614409 -0.13366812 0.18679474 0.058053497 -0.026857506 -0.17613389 -0.19232641
-0.1511769 -0.16098146 -0.1283376 -0.056043953 -0.15974717 -0.16088584 -0.021418914 -0.16191721
-0.017399227 0.032785013 0.036522374 0.12077318 0.105046645 -0.10794465 -0.06481577 0.004407609
0.1624137 0.09340035 -0.10769771 -0.022580758 0.03478515 0.066840634 -0.07151196 -0.16888726
-0.117387146 0.006616793 -0.13133122 0.053565294 0.12097298 -0.0021017706 0.10096313 0.1348109
0.1228694 -0.18328574 0.17442551 0.050887614 -0.19078502 0.047889 -0.13252172 0.17813587
0.15259913 -0.12693648 -0.14264026 0.013537543 -0.05098101 0.082403824 -0.17928061 0.14268179
0.017256439 0.0037798972 -0.122755356 0.01195942 0.13074887 0.18749027 -0.12464482 -0.08066571
0.040021762 0.108215526 -0.16153021 -0.07181949 -0.15289606 0.17684485 -0.0656742 0.11574935
0.10490633 0.017762901 0.037537277 0.12519322 -0.024313096 0.1012817 -0.025608873 0.0030280014
0.06578549 -0.17363195 -0.0916305 -0.1536031 -0.058522932 -0.012103678 0.076820955 -0.1540223
00000000: 2d2a 023e 235d 13be 6599 203e d030 fc3d
00000010: 2294 253e 3818 17be a746 04be ca8b bb3d
00000020: 42f5 37be e1c6 423e 42ca 273d 8c99 cb3c
00000030: 4d87 28be bd34 7b3d d97b a93d c420 fa3c
00000040: 2e8d 3d3e 98bb 6c3d 52bf 2ebe f894 253e
00000050: 4bd2 853d 6106 bcbd 8005 35be cfaf e03d
00000060: 6e47 3b3e f875 21be b351 2c3c e067 8d3d
00000070: 8a20 babd 077b 2cbd bb96 03be f455 babd
00000080: 48a9 33be fe26 92bb c8b1 e93d b0b2 bf3d
00000090: d020 393e 8813 2dbe 63fb c1bc 49df 3f3e
000000a0: 6714 013d b34a 5ebd 6f7b 31be e768 b73d
000000b0: f99b 153e 4006 1e3e 5bfa 243e 8d53 1a3d
000000c0: 6075 0c3e a96b 46bd 1c0b 203e 08e3 86bc
000000d0: 8b8e 22bd daeb c3bd e7d9 d13d 6178 9f3d
000000e0: 2bb4 fa3d 89e1 fbbd 1c90 d1bd b57d 3a3e
000000f0: 41c3 dabd a8c8 e0bd 57e9 52bd 36c7 7ebd
00000100: 5305 06be 1a42 1f3e 78bb af3c 65b1 b33d
00000110: a52c 123e 7466 ffbd 8670 163e e371 c5bd
00000120: 3f00 fbbc e522 153e 48b1 353e 5cff 2c3e
00000130: dfad e23d 2e2b 373e 8e02 8ebd f5b0 48bc
00000140: c0ce 86bd 75bf 67bc ebb2 bfbc fa93 d23d
00000150: 3174 073e 72e9 0dbe 87a4 d9bd 0070 72bd
00000160: 22c0 d23c 46ff 98bd 9522 f5bd 4cf9 0fbd
00000170: 6757 c0bd 599e ad3b d0e1 11be 2c0e 45bd
00000180: 066d 91bd 63c6 d9bc 9ad7 1a3e fc38 013e
00000190: 7461 7ebd 60ad 34be fef5 0cbe 2630 17be
000001a0: 1b96 95bc 2b08 afbd aab8 09be a0c6 2e3d
000001b0: 34e8 4a3c 115a ecbc 20e0 8ebd 06f7 273e
000001c0: 8dd9 3dbe ec3d 96bb 46f7 b63d 0d24 0b3e
000001d0: 2072 2bbe 8ddf f6bc 2e5a 243e cfc2 013d
000001e0: ff5a 6e3d a927 aebd 5fc5 083e b3cc 93bd
000001f0: 133e d4bd 01c1 323e 33d1 503d 5f22 aeba
00000200: 1057 09be 737b 2ebd 7863 17be 0998 04be
00000210: 73c7 e1bc 6064 183d 2679 21be 3688 3f3e
00000220: 8df0 103e 5d66 37be a65d f63d b682 ecbd
00000230: a396 20be e89f 383e cc7d 9ebd 80be 82bd
00000240: dc76 c43c 21c6 de3d bc8d 723c ecd6 53bd
00000250: 8dab 853c c234 ccbd a958 0fbe ce3f 4d3d
00000260: 3320 a63c 7fd7 c33d 536b 92bd b6c7 42be
00000270: b998 43bd a2af 3ebe 9a40 78bc 7a89 c03d
00000280: 64de 913c 7625 e23d a707 133d f702 a93d
00000290: cb63 313e f294 ea3c de2d 033d 14ec 9fbd
000002a0: 2bc5 f53d c350 253e 4ce0 08be 1f47 3f3e
000002b0: 81c9 6d3d 4604 dcbc 715c 34be 37f1 44be
000002c0: 1ece 1abe 53d8 24be ef6a 03be 588e 65bd
000002d0: c394 23be 42bf 24be b876 afbc a0cd 25be
000002e0: d388 8ebc 9449 063d 7c98 153d ee57 f73d
000002f0: b222 d73d 1612 ddbd 21be 84bd b46d 903b
00000300: c74f 263e af48 bf3d 9e90 dcbd 48fb b8bc
00000310: e07a 0e3d bee3 883d dd74 92bd c8f0 2cbe
00000320: ac68 f0bd afd1 d83b b17b 06be 4867 5b3d
00000330: afc0 f73d dcbd 09bb c2c5 ce3d de0b 0a3e
00000340: f4a2 fb3d 42af 3bbe 9a9c 323e 886f 503d
00000350: 265d 43be 4227 443d c6b3 07be 4069 363e
00000360: f242 1c3e a3fb 01be 4a10 12be 92cc 5d3c
00000370: 77d1 50bd 56c3 a83d 5695 37be 2d1b 123e
00000380: 605d 8d3c 27b8 773b 2967 fbbd 71f1 433c
00000390: 08e3 053e 73fd 3f3e c945 ffbd 1034 a5bd
000003a0: dced 233d 1aa0 dd3d 2d68 25be 1916 93bd
000003b0: c990 1cbe d116 353e 3280 86bd ff0d ed3d
000003c0: 21d9 d63d 8183 913c b0c0 193d a732 003e
000003d0: 422c c7bc c86c cf3d b3c9 d1bc 6f71 463b
000003e0: 8bba 863d 93cc 31be c6a8 bbbd 224a 1dbe
000003f0: beb5 6fbd 814e 46bc 4e54 9d3d 06b8 1dbe

conv1.bias f4 [64]
-0.13339186 0.07382399 -0.014345624 0.15864094 -0.17797787 0.049545813 0.10851792 -0.1429028
0.07334253 0.080722466 -0.10891427 0.17446625 -0.12310983 0.18594024 0.010735656 0.16647653
0.092026345 -0.14052261 0.16483358 -0.02916853 -0.0028438244 0.090215474 0.09476723 -0.08767559
0.01799193 0.09376352 0.172582 -0.11080491 -0.14481641 -0.1881443 0.10813358 -0.037460193
-0.017682973 0.09583226 0.012521908 0.07756948 0.16797307 -0.08159701 -0.13235714 -0.19126499
-0.071536236 0.050785363 -0.0060159466 0.08367467 0.025094403 -0.0057707443 -0.13286826 0.05851986
0.18484631 -0.034693178 -0.1680503 0.13736625 -0.1459089 0.08025736 0.11009887 -0.09770631
0.16247424 -0.15386508 0.011153427 0.18746164 0.18009524 0.051028386 -0.18474686 -0.15165828
00000000: e097 08be 0831 973d e809 6bbc c572 223e
00000010: d53f 36be 8df0 4a3d a53e de3d 1d55 12be
00000020: 9c34 963d d251 a53d 720e dfbd 48a7 323e
00000030: 0221 fcbd 1e67 3e3e 9be4 2f3c d378 2a3e
00000040: 4f78 bc3d 29e5 0fbe 22ca 283e d7f2 eebc
00000050: 755f 3abb e4c2 b83d 5215 c23d 428f b3bd
00000060: d063 933c 1707 c03d 56b9 303e afed e2bd
00000070: c14a 14be e6a8 40be 2375 dd3d dc6f 19bd
00000080: e2db 90bc b443 c43d b028 4d3c bfdc 9e3d
00000090: 2201 2c3e 551c a7bd a188 07be f8da 43be
000000a0: 9781 92bd 5004 503d 6b21 c5bb a05d ab3d
000000b0: c792 cd3c 8318 bdbb 9e0e 08be 85b2 6f3d
000000c0: 5a48 3d3e 6f1a 0ebd 6115 2cbe bda9 0c3e
000000d0: 2569 15be f95d a43d 847b e13d 3f1a c8bd
000000e0: a65f 263e cf8e 1dbe ddbc 363c f2f5 3f3e
000000f0: e36a 383e 2403 513d 482e 3dbe 4f4c 1bbe

conv2.weight f4 [64, 64, 1, 1]
0.078704655 0.052086487 -0.087926224 0.112182185 -0.12499188 0.09055717 0.0064322203 0.11843531
0.0223355 0.010921642 0.016172305 0.060874417 0.011193052 -0.004340172 0.11576766 0.095586136
0.008388728 0.111491635 -0.10763703 0.091351286 0.1137353 -0.07582821 0.03849913 0.122125894
-0.12061225 0.027501673 0.09251225 -0.111966625 0.036251754 0.10305095 0.006631866 0.031556025
-0.120910406 0.03091608 -0.09971967 0.003142938 -0.013434425 0.12170249 -0.012182638 -0.090434074
0.022535771 -0.11685464 -0.06977777 0.062278792 0.061893687 0.03210233 0.007960245 0.08006972
0.02985093 -0.029860303 -0.0372732 0.08842911 0.055020347 0.09914607 -0.106004596 -0.07564008
0.110854685 -0.09800878 -0.070247054 -0.025535554 0.042522505 0.12469964 -0.11131087 -0.04355839
-0.021743223 -0.10680081 -0.09778184 -0.09035805 -0.019085363 -0.051871285 0.04971002 -0.028067976
-0.1156449 0.037621796 -0.046987414 -0.0005605519 -0.108838424 0.016317785 0.034905985 -0.03118807
0.074446395 0.048929483 -0.041311055 0.077009946 -0.03635034 0.09044264 0.09137422 -0.07177164
0.088184446 0.086868376 0.013549849 -0.075811446 -0.10294548 0.09385136 -0.063256636 -0.09797157
-0.07579239 -0.028070167 -0.09375681 0.09692119 0.12232663 -0.004708454 -0.03954485 -0.0100272745
0.02050902 0.09741506 -0.04369086 -0.06561759 -0.12497491 -0.124963954 -0.092706874 0.005279675
0.016585767 0.10870373 0.03317833 -0.0509364 -0.11358552 -0.107969135 0.11161776 0.06678921
-0.039086267 0.116090775 0.09476942 -0.03769809 -0.002303496 0.11916272 -0.098178715 0.07616821
-0.09803164 -0.11384183 0.10357697 -0.10063271 -0.08672097 0.0109847635 -0.050066784 -0.029491201
-0.0775501 -0.002748385 0.11840595 -0.055057004 0.0005750507 -0.11629681 -0.10293901 0.0728043
0.031055972 0.059565023 -0.04619421 -0.0057204515 -0.08113782 0.060372278 0.00516282 0.06336285
-0.10954405 0.10045603 -0.07588084 -0.09657262 -0.08093858 0.113232106 -0.11854938 -0.062434852
-0.070944846 -0.058776304 0.11791131 0.031509295 -0.09726705 0.09066124 0.026405424 0.008068249
0.05794342 0.041596636 0.08439417 -0.038779244 -0.0638379 -0.065427795 -0.013844892 -0.065216646
-0.081407145 0.04403609 0.12012337 0.015060902 -0.07503694 -0.09592736 -0.11106832 -0.009245425
0.0015313178 -0.01874049 0.032390058 -0.10919604 -0.031278595 -0.023186818 -0.012118652 0.06337148
-0.10740991 -0.07407096 -0.121920094 -0.09316167 0.11174211 0.05926624 -0.10613266 -0.026967898
-0.018719569 -0.0069636703 0.029444084 -0.0047877133 -0.009801239 -0.02951704 -0.027042076 0.0005773902
-0.035246655 -0.06092611 0.078829706 -0.018922761 -0.04765375 0.10673453 0.05440864 0.053753704
-0.07263386 -0.019861817 0.07828358 0.00064593554 -0.019502744 0.066590175 0.080015525 -0.08569758
0.07871899 -0.10095738 0.11314395 0.01685369 -0.015147895 0.08322506 0.03712079 -0.11152397
0.0904672 -0.10120846 -0.08564724 0.011308953 0.07912469 -0.012020901 0.07404244 -0.10773055
0.016560689 -0.10990518 0.07185125 0.028501675 -0.033596903 0.121210486 0.03452882 -0.046091244
0.062212244 0.09639275 0.08820909 -0.07459387 -0.058728293 -0.082439944 -0.09133826 0.0381117
00000000: e82f a13d a458 553d aa12 b4bd c6bf e53d
00000010: befb ffbd 0a76 b93d 60c5 d23b 368e f23d
00000020: f0f8 b63c b0f0 323c c87b 843c 7457 793d
00000030: 1063 373c 0038 8ebb 9817 ed3d aac2 c33d
00000040: e070 093c ba55 e43d ce70 dcbd 6216 bb3d
00000050: 0eee e83d d24b 9bbd 44b1 1d3d 241d fa3d
00000060: 8e03 f7bd 304b e13c 1077 bd3d c24e e5bd
00000070: b87c 143d 600c d33d 2050 d93b e440 013d
00000080: e09f f7bd b843 fd3c d439 ccbd c0f9 4d3b
00000090: 101c 5cbc 283f f93d b099 47bc 8035 b9bd
000000a0: f09c b83c 7c51 efbd a6e7 8ebd 0c18 7f3d
000000b0: 3c84 7d3d bc7d 033d b06b 023c 98fb a33d
000000c0: f089 f43c 989d f4bc c8ab 18bd 521a b53d
000000d0: 045d 613d 180d cb3d f018 d9bd 30e9 9abd
000000e0: c807 e33d d4b8 c8bd b0dd 8fbd f02f d1bc
000000f0: 142c 2e3d 8662 ff3d f4f6 e3bd 486a 32bd
00000100: d81e b2bc 62ba dabd d841 c8bd a40d b9bd
00000110: e858 9cbc fc76 54bd bc9c 4b3d d0ee e5bc
00000120: 3cd7 ecbd 5019 1a3d e075 40bd 00f2 12ba
00000130: aee6 debd e0ac 853c 94f9 0e3d 207e ffbc
00000140: 5a77 983d 486a 483d c835 29bd 64b7 9d3d
00000150: 18e4 14bd fe39 b93d 6822 bb3d 02fd 92bd
00000160: 0c9a b43d 0ce8 b13d 3000 5e3c 0843 9bbd
00000170: 14d5 d2bd 2435 c03d b28c 81bd 52a5 c8bd
00000180: 0a39 9bbd 68f3 e5bc 9203 c0bd 9e7e c63d
00000190: 6286 fa3d 6049 9abb c8f9 21bd 7049 24bc
000001a0: 8802 a83c 8c81 c73d 30f5 32bd 8462 86bd
000001b0: d8f2 ffbd 1aed ffbd 1add bdbd 2001 ad3b
000001c0: e0de 873c 10a0 de3d 00e6 073d b0a2 50bd
000001d0: 869f e8bd ec1e ddbd da97 e43d c8c8 883d
000001e0: ec18 20bd 00c1 ed3d 7816 c23d 5069 1abd
000001f0: 40f6 16bb 960b f43d ec11 c9bd 14fe 9b3d
00000200: d0c4 c8bd e825 e9bd 2a20 d43d 8618 cebd
00000210: c49a b1bd 70f9 333c d412 4dbd 8897 f1bc
00000220: 96d2 9ebd 401e 34bb d27e f23d 7483 61bd
00000230: 00bf 163a 062d eebd b0d1 d2bd 6c1a 953d
00000240: 1869 fe3c 74fa 733d 2436 3dbd a072 bbbb
00000250: 962b a6bd ec48 773d e02c a93b 62c4 813d
00000260: a258 e0bd e4bb cd3d 6a67 9bbd dec7 c5bd
00000270: 20c3 a5bd 3ce6 e73d 04ca f2bd b0bb 7fbd
00000280: 884b 91bd 6cbf 70bd 7c7b f13d e40f 013d
00000290: f233 c7bd 9aac b93d 3050 d83c b030 043c
000002a0: 1456 6d3d 3c61 2a3d dad6 ac3d fcd6 1ebd
000002b0: 72bd 82bd 02ff 85bd b0d5 62bc 4e90 85bd
000002c0: cab8 a6bd 305f 343d 3e03 f63d 00c2 763c
000002d0: f8ac 99bd 9075 c4bd ca77 e3bd 207a 17bc
000002e0: 80b6 c83a a885 99bc 70ab 043d 2ca2 dfbd
000002f0: fc1d 00bd 48f2 bdbc 508d 46bc e8c8 813d
00000300: baf9 dbbd 84b2 97bd 3eb1 f9bd 8ccb bebd
00000310: 0cd9 e43d 28c1 723d 145c d9bd c8eb dcbc
00000320: c859 99bc 802f e4bb b834 f13c 40e2 9cbb
00000330: 6095 20bc b8cd f1bc 5887 ddbc 005c 173a
00000340: cc5e 10bd a88d 79bd 7871 a13d e803 9bbc
00000350: 9430 43bd a297 da3d 98db 5e3d d82c 5c3d
00000360: 10c1 94bd 40b5 a2bc 2453 a03d 0054 293a
00000370: 38c4 9fbc 6e60 883d 2edf a33d 3682 afbd
00000380: 6c37 a13d bec2 cebd 04b8 e73d c010 8a3c
00000390: e02e 78bc e671 aa3d f80b 183d ae66 e4bd
000003a0: de46 b93d 6246 cfbd d267 afbd 3049 393c
000003b0: 200c a23d 50f3 44bc 90a3 973d d6a1 dcbd
000003c0: 48aa 873c f815 e1bd c026 933d 587c e93c
000003d0: e89c 09bd 343d f83d 186e 0d3d 2cca 3cbd
000003e0: 44d2 7e3d 9069 c53d f8a6 b43d acc4 98bd
000003f0: 148d 70bd 46d6 a8bd 8e0f bbbd 041b 1c3d

conv2.bias f4 [64]
0.10695799 0.024380967 0.020676583 -0.031225383 -0.119329214 0.007975161 -0.092161626 0.03500788
-0.050369218 -0.044002697 0.028681979 0.034970045 -0.11398637 -0.024260968 -0.019382358 -0.036013186
0.11399409 -0.04957573 -0.09935978 0.09551996 -0.007034853 -0.018975332 0.06423737 -0.012887627
0.023412064 -0.101666465 0.068833485 -0.02810216 0.016648099 0.04949397 -0.08814573 -0.07280597
-0.013961911 0.027434155 0.03408514 -0.023582414 0.01008825 -0.089316055 0.03290911 0.0618892
-0.034829497 -0.11325723 -0.08405626 0.08774611 0.08413009 0.1093258 -0.019438177 -0.04699433
0.0027405173 0.0287503 0.008488372 0.103746906 0.040584713 -0.07157436 0.06164831 0.106339455
-0.07744159 -0.005194843 -0.0852693 -0.123552606 -0.05595328 0.0018675178 -0.10337135 0.10656069
00000000: ca0c db3d 98ba c73c f061 a93c 60cc ffbc
00000010: e062 f4bd 40aa 023c 3cbf bcbd 6c64 0f3d
00000020: f44f 4ebd 2c3c 34bd 78f6 ea3c c03c 0f3d
00000030: b071 e9bd f0be c6bc c0c7 9ebc 9082 13bd
00000040: bc75 e93d ec0f 4bbd 247d cbbd f89f c33d
00000050: a084 e6bb 2872 9bbc e28e 833d a026 53bc
00000060: a8ca bf3c 8236 d0bd 92f8 8c3d 8036 e6bc
00000070: 9861 883c 30ba 4a3d c085 b4bd 4c1b 95bd
00000080: 80c0 64bc 98bd e03c dc9c 0b3d e82f c1bc
00000090: 3049 253c 56eb b6bd b4cb 063d 887f 7d3d
000000a0: 60a9 0ebd 68f3 e7bd b025 acbd 3cb4 b33d
000000b0: 664c ac3d 34e6 df3d d03c 9fbc 207d 40bd
000000c0: 409a 333b c085 eb3c d012 0b3c 4279 d43d
000000d0: 283c 263d 9495 92bd f082 7c3d 80c8 d93d
000000e0: b299 9ebd 8039 aabb aca1 aebd 2609 fdbd
000000f0: 442f 65bd 80c7 f43a 5cb4 d3bd 7e3c da3d

conv3.weight f4 [64, 64, 1, 1]
-0.014320195 0.077029645 0.034091905 0.079659864 0.013963625 -0.042295277 -0.121042535 -0.0098564625
0.02468656 -0.11646105 0.124019265 0.039400235 0.06451973 -0.072843745 0.044623792 -0.09298991
0.058529615 -0.10187319 -0.06926988 -0.105531216 -0.061823726 -0.006884381 -0.030857772 -0.0045303553
0.079864845 0.01576984 -0.03699413 0.077582344 -0.1197539 -0.08138171 0.031843185 -0.028332919
0.06218998 -0.07767318 -0.060511574 -0.002879247 -0.079599336 -0.020375848 0.049149618 -0.110778555
-0.04357715 0.06866604 -0.05421473 -0.026230305 -0.010908246 0.09018254 0.026001558 0.118513644
0.015103564 -0.12341753 -0.117721885 -0.099969685 -0.08356044 -0.06796403 0.051192984 -0.038798913
-0.12346557 -0.01832059 -0.040111884 0.10908157 0.024279252 0.07443008 -0.004194692 -0.013253272
0.052510694 -0.06152594 -0.04111947 -0.06476335 -0.08208373 -0.056378067 -0.08472778 -0.04601553
0.059118673 -0.07133341 -0.028525278 0.11930992 0.08152008 -0.06344023 0.011865988 -0.104299664
-0.122565255 0.03168419 -0.117922306 0.0772827 -0.051288664 0.03979206 0.045400694 0.040653765
0.10878742 -0.06531371 0.06746775 -0.062454328 -0.117262855 -0.01096262 -0.062882096 -0.0041832924
0.100614294 -0.0328207 -0.07143411 -0.048832834 0.06256072 -0.07781948 0.02016756 0.07421318
0.040488765 0.112769306 0.059844315 -0.080481514 -0.06585573 0.07639849 0.09595032 -0.04789035
0.064252496 0.084389016 -0.035847515 0.00093489885 0.05050382 -0.1045728 0.047297537 0.011934996
0.04626833 -0.015805498 -0.12119898 0.09291075 0.063499615 -0.087176055 0.10397661 0.09468335
-0.07714443 0.12254456 0.030633986 -0.040169775 -0.10059832 -0.0075413287 -0.013605729 0.0899902
0.12208843 -0.099472925 0.02027224 0.114488244 0.027857244 0.092755616 -0.078646615 -0.0028340667
-0.07774381 -0.1234913 -0.046086 0.10088526 -0.046199962 -0.004225895 0.10446291 -0.030337095
0.050664023 0.06144765 -0.06041892 0.09334518 0.06895819 -0.060070395 -0.062021375 0.042861685
0.12118788 -0.11356376 0.002981931 -0.11284387 -0.1134949 0.06947167 0.0463271 -0.04279524
0.06686492 -0.09670803 -0.032379895 0.0015724003 -0.09169127 -0.055093855 0.01350449 0.09842506
0.016581804 -0.024012908 0.101309404 -0.12318458 0.030922994 0.08817214 -0.12231967 -0.0052800775
-0.08405565 -0.046494037 0.0024486035 -0.035299957 -0.062273175 0.005147293 0.00040125847 0.08858545
0.031721517 0.023650363 0.08079067 0.06394939 -0.06918311 -0.12020655 0.06171082 -0.07456423
-0.043565586 0.040323734 -0.059110478 -0.124082774 -0.0031051785 0.068616405 -0.12216334 0.077313006
0.008756876 0.11536436 -0.073929965 0.08495247 -0.011432141 0.08432944 0.06746481 0.10850957
0.043278635 0.052341864 -0.04493001 -0.06376752 0.118686855 -0.06456865 -0.0721467 0.041943416
0.0050774366 0.087172925 -0.12043674 0.033785716 0.029627174 -0.008075044 -0.029504523 -0.008291274
-0.10022065 -0.0026835054 0.044644862 -0.038351357 -0.08470751 -0.007901385 0.120682225 -0.11836356
-0.010975391 -0.07439868 -0.08686623 -0.03522913 0.014797628 -0.090904355 0.06790674 -0.014094606
0.0009884089 -0.041332513 -0.09649207 -0.04689333 0.12347022 0.07017371 0.10119523 0.06568265
00000000: 409f 6abc b8c1 9d3d f4a3 0b3d b624 a33d
00000010: b0c7 643c d03d 2dbd 26e5 f7bd 007d 21bc
00000020: 783b ca3c 2283 eebd d0fd fd3d 2462 213d
00000030: ec22 843d 1a2f 95bd 70c7 363d 7e71 bebd
00000040: c0bc 6f3d e4a2 d0bd 5edd 8dbd c020 d8bd
00000050: e03a 7dbd 6096 e1bb 70c9 fcbc 6073 94bb
00000060: 2e90 a33d c02f 813c 2887 17bd 7ee3 9e3d
00000070: 8841 f5bd 74ab a6bd 006e 023d 701a e8bc
00000080: ecba 7e3d 1e13 9fbd fcda 77bd c0b1 3cbb
00000090: fa04 a3bd 40eb a6bc 1c51 493d dedf e2bd
000000a0: f47d 32bd c8a0 8c3d 4410 5ebd f0e0 d6bc
000000b0: 80b8 32bc a0b1 b83d 3801 d53c 48b7 f23d
000000c0: f074 773c 54c2 fcbd 2c18 f1bd e8bc ccbd
000000d0: bc21 abbd ba30 8bbd bcaf 513d 9ceb 1ebd
000000e0: 84db fcbd 1015 96bc 5c4c 24bd 2866 df3d
000000f0: 48e5 c63c cc6e 983d a073 89bb 4024 59bc
00000100: 7415 573d a002 7cbd e46c 28bd a6a2 84bd
00000110: 841b a8bd b0ec 66bd c285 adbd c87a 3cbd
00000120: 6c26 723d 4017 92bd d8ad e9bc c258 f43d
00000130: 00f4 a63d f4ec 81bd 9069 423c 109b d5bd
00000140: 7e03 fbbd 48c7 013d 4081 f1bd 6446 9e3d
00000150: 1014 52bd 00fd 223d 14f6 393d 9084 263d
00000160: f0cb de3d 32c3 85bd 882c 8a3d 1cd0 7fbd
00000170: 8227 f0bd 909c 33bc 54c8 80bd 0014 89bb
00000180: de0e ce3d 006f 06bd 0c4c 92bd f004 48bd
00000190: d61f 803d d25f 9fbd 7036 a53c 14fd 973d
000001a0: 8cd7 253d 98f3 e63d 501f 753d 7ed3 a4bd
000001b0: 5edf 86bd d076 9c3d 9a81 c43d ac28 44bd
000001c0: d096 833d 26d4 ac3d d8d4 12bd 0014 753a
000001d0: 18dd 4e3d 442a d6bd 10bb 413d 008b 433c
000001e0: dc83 3d3d 887a 81bc 2c37 f8bd fe47 be3d
000001f0: 160c 823d 5c89 b2bd b0f1 d43d 58e9 c13d
00000200: e6fd 9dbd a4f8 fa3d 20f4 fa3c 1089 24bd
00000210: 7e06 cebd 401d f7bb 90ea 5ebc c84c b83d
00000220: 8009 fa3d 76b8 cbbd f811 a63c d078 ea3d
00000230: e034 e43c a8f6 bd3d 7a11 a1bd c0bb 39bb
00000240: 2638 9fbd 02e9 fcbd acc4 3cbd ee9c ce3d
00000250: 2c3c 3dbd 6079 8abb a6f0 d53d 8085 f8bc
00000260: 1485 4f3d 88b0 7b3d d479 77bd c22b bf3d
00000270: f439 8d3d 600c 76bd 200a 7ebd bc8f 2f3d
00000280: 5a31 f83d 1e94 e8bd 806c 433b b01a e7bd
00000290: 0470 e8bd 2a47 8e3d 7cc1 3d3d 104a 2fbd
000002a0: 7af0 883d dc0e c6bd c8a0 04bd 0019 ce3a
000002b0: a2c8 bbbd 18aa 61bd f041 5d3c 1493 c93d
000002c0: 90d6 873c b8b6 c4bc 4e7b cf3d 3248 fcbd
000002d0: 3852 fd3c 9893 b43d bc82 fabd 8004 adbb
000002e0: 5e25 acbd 8870 3ebd c078 203b b096 10bd
000002f0: 2812 7fbd a0aa a83b 0060 d239 4a6c b53d
00000300: 6cee 013d 68be c13c 9475 a53d e6f7 823d
00000310: e0af 8dbd da2e f6bd 7cc4 7c3d 22b5 98bd
00000320: d471 32bd 802a 253d d41d 72bd 1c1f febd
00000330: 4080 4bbb c286 8c3d c630 fabd 4856 9e3d
00000340: 0079 0f3c 2644 ec3d 9868 97bd 90fb ad3d
00000350: e04d 3bbc eab4 ac3d fe2a 8a3d 443a de3d
00000360: f044 313d 6c64 563d 8808 38bd 8c98 82bd
00000370: 1812 f33d 923c 84bd a6c1 93bd dccc 2b3d
00000380: a060 a63b b887 b23d 8aa7 f6bd e462 0a3d
00000390: b0b4 f23c 304d 04bc 78b3 f1bc 20d8 07bc
000003a0: 7c40 cdbd c0dd 2fbb 88dd 363d 5016 1dbd
000003b0: 227b adbd d074 01bc 3e28 f73d 9868 f2bd
000003c0: 20d2 33bc 565e 98bd ece6 b1bd 6c4c 10bd
000003d0: c071 723c 102c babd b012 8b3d 10ed 66bc
000003e0: 808d 813a 484c 29bd a29d c5bd 3813 40bd
000003f0: f4dd fc3d 3cb7 8f3d 723f cf3d a084 863d

conv3.bias f4 [64]
-0.10710344 -0.07865912 0.03858526 -0.006221086 0.084912986 -0.046386793 0.024375618 -0.018143803
-0.0017628223 0.089036 0.04781632 -0.07526462 -0.025924698 0.105746314 0.015888736 0.094575405
-0.0529394 -0.08064248 0.124386266 0.059545428 0.0063390136 0.061907977 -0.00053833425 -0.07322179
-0.1070694 -0.062074766 0.07047665 0.10078058 -0.02881287 0.037481382 0.05998364 -0.076847136
-0.026807979 0.07649702 -0.032578304 0.06555639 0.049296066 -0.041904822 -0.084188625 -0.112555444
-0.017462254 -0.022919953 -0.11768587 -0.0051514506 -0.12166652 0.037003458 -0.01057145 0.007469088
0.07045896 0.016372994 -0.09569837 -0.0070506036 0.103164986 0.026759684 -0.06456593 0.09411548
0.029060394 0.111867234 0.048573107 0.06578441 0.019858167 -0.07250959 0.06424756 -0.028571755
00000000: 0c59 dbbd 0818 a1bd 940b 1e3d 40da cbbb
00000010: dce6 ad3d 1400 3ebd 60af c73c 50a2 94bc
00000020: 800e e7ba 8258 b63d 0cdb 433d 5624 9abd
00000030: 0860 d4bc 8691 d83d 1829 823c c0b0 c13d
00000040: fcd6 58bd e227 a5bd 3abe fe3d e8e5 733d
00000050: 80b7 cf3b 3893 7d3d 001f 0dba 4ef5 95bd
00000060: 3447 dbbd 1c42 7ebd 1056 903d 0c66 ce3d
00000070: f808 ecbc 1486 193d 68b1 753d 0862 9dbd
00000080: 689c dbbc 78aa 9c3d d470 05bd 6e42 863d
00000090: acea 493d 64a4 2bbd 166b acbd 7883 e6bd
000000a0: 000d 8fbc a0c2 bbbc 4a05 f1bd 80cd a8bb
000000b0: 4c2c f9bd f090 173d e033 2dbc 40bf f43b
000000c0: ca4c 903d a820 863c 82fd c3bd c008 e7bb
000000d0: 2a48 d33d 2037 db3c 243b 84bd 9ebf c03d
000000e0: 1010 ee3c a61a e53d 98f4 463d fab9 863d
000000f0: 98ad a23c e87f 94bd 3a94 833d 500f eabc

conv4.weight f4 [64, 64, 1, 1]
-0.03805159 0.06589411 -0.0451611 0.06313069 0.11051291 -0.01872456 -0.008827627 -0.012744278
0.045305222 -0.068611234 -0.1048035 -0.09331925 0.062168404 0.10508981 -0.117253944 0.068259805
-0.02808091 0.02391918 0.021750882 -0.10470769 0.020530462 0.009046271 -0.105104506 0.103753135
0.10147148 0.059572563 0.014607847 0.11287969 -0.09954588 0.07377954 0.04329388 0.115150586
0.037914693 -0.10953976 0.09930618 -0.11023553 0.058229417 -0.030578464 -0.0354646 -0.03401506
-0.11232218 0.015902832 0.11795935 -0.059799746 0.013987571 -0.093220785 0.033624187 -0.07188475
0.052512765 0.05297306 0.022296906 -0.0054448694 0.07771009 0.08625068 0.0619376 -0.08082624
-0.092843816 0.07515961 -0.036578283 -0.09163782 0.047161415 -0.06806323 -0.08409561 0.027928144
0.02240111 0.045453116 -0.11570504 0.05671163 -0.0895617 -0.008640379 0.02391243 0.10502207
-0.11772463 0.105229706 -0.0014946759 0.04694332 0.065374225 0.06419456 0.03198853 -0.05836232
0.04769151 -0.09016296 -0.06075941 -0.046643034 -0.102556825 -0.049858212 -0.023544356 0.124532
-0.03937131 -0.108561054 -0.12264277 0.096283644 0.09417069 0.053566918 -0.055820882 -0.006077245
-0.03711486 0.022345066 -0.016821101 0.028065369 -0.107188 0.0052926242 0.034583315 -0.07136263
-0.032476142 0.087558135 -0.011516124 -0.038676575 0.08412565 0.08056776 -0.11312561 -0.108078554
-0.09981322 -0.08924617 0.0005970299 0.0013379902 0.04690498 0.03388706 0.029020831 -0.102977544
-0.12210855 0.026859611 0.0041340888 0.11803743 0.055380046 -0.11959036 -0.09209202 -0.0541977
-0.107731864 0.024578094 0.077433825 -0.11063819 -0.09743722 -0.09861423 -0.031061262 -0.11752541
-0.062373713 -0.018017381 -0.106038615 -0.007234767 -0.091655 0.016963765 0.086601004 -0.06456661
-0.031995833 0.024660498 0.06342532 0.108744964 -0.077045694 -0.024607912 0.07281582 -0.010363072
-0.06729591 -0.026406571 -0.01020433 0.011513457 -0.0503058 0.010967493 -0.09333788 0.05929324
0.02343601 0.074201 -0.117039666 0.12277959 0.004206404 0.09040873 0.04833004 0.07500203
-0.004455775 -0.055950373 -0.046084374 0.013895988 0.05631976 0.04955004 0.10493067 0.00616315
0.109654754 -0.081321865 -0.0944657 -0.083067685 -0.02652514 0.07212904 -0.1164982 0.016008481
0.035523638 -0.066181675 0.025987312 -0.08257881 -0.122685954 -0.0011559129 0.032978415 0.05938551
0.1029377 -0.11028704 -0.11512312 -0.0443182 -0.05125247 0.09938353 -0.09850754 0.0068838
0.12265599 -0.01739791 0.081165224 -0.09036936 -0.030464306 0.11129558 -0.021865651 0.08858997
0.06214881 -0.045061633 -0.08183172 0.048620164 -0.015850559 -0.028211609 0.110319 -0.01717031
-0.060956225 -0.03107433 -0.1214353 0.041716054 0.105908915 0.104383916 -0.09416343 0.093270645
-0.06668021 0.03157927 -0.042389035 -0.10676724 0.11801641 -0.041265786 -0.007101342 -0.08576803
0.081452504 0.024617612 0.043425977 -0.015778169 -0.08841626 -0.048241243 0.023454055 -0.02089049
0.07389808 0.042348325 -0.07583092 0.006258577 -0.062459245 -0.026336819 0.117065355 0.116392955
0.06352319 0.07868998 0.004669875 0.11242129 -0.120020255 0.00665468 0.036649823 -0.10931422
00000000: fcdb 1bbd 7ef3 863d d8fa 38bd aa4a 813d
00000010: 9854 e23d 4064 99bc c0a1 10bc 60cd 50bc
00000020: f891 393d 0c84 8cbd 38a3 d6bd 2a1e bfbd
00000030: 4ca4 7e3d 5439 d73d d622 f0bd cccb 8b3d
00000040: f009 e6bc 28f2 c33c e82e b23c fc70 d6bd
00000050: 802f a83c d036 143c 0841 d7bd 867c d43d
00000060: 48d0 cf3d 5c02 743d c055 6f3c 782d e73d
00000070: b6de cbbd ba19 973d ec54 313d 12d4 eb3d
00000080: 704c 1b3d 6256 e0bd 0a61 cb3d 2ac3 e1bd
00000090: f881 6e3d b07f fabc 5443 11bd 6053 0bbd
000000a0: 2c09 e6bd a846 823c ac94 f13d 94f0 74bd
000000b0: 202c 653c 8aea bebd 84b9 093d 5038 93bd
000000c0: a017 573d 48fa 583d 00a8 b63c e06a b2bb
000000d0: 7826 9f3d 32a4 b03d 48b2 7d3d 3a88 a5bd
000000e0: e624 bebd 48ed 993d 1cd3 15bd 9cac bbbd
000000f0: 542c 413d bc64 8bbd 523a acbd 90c9 e43c
00000100: 8882 b73c 0c2d 3a3d c4f6 ecbd 744a 683d
00000110: 206c b7bd 6090 0dbc 00e4 c33c d015 d73d
00000120: 9c19 f1bd ac82 d73d 00e9 c3ba a447 403d
00000130: ece2 853d 7078 833d 6806 033d 540d 6fbd
00000140: 2c58 433d 5ca7 b8bd dcde 78bd c40c 3fbd
00000150: 5009 d2bd 2038 4cbd 18e0 c0bc a20a ff3d
00000160: d043 21bd 4255 debd 222c fbbd 5c30 c53d
00000170: 90dc c03d fc68 5b3d 70a4 64bd a023 c7bb
00000180: c005 18bd 000d b73c 68cc 89bc 58e9 e53c
00000190: 6285 dbbd c06d ad3b 3ca7 0d3d 9226 92bd
000001a0: b405 05bd ae51 b33d 20ae 3cbc 546b 1ebd
000001b0: 124a ac3d b600 a53d 66ae e7bd 4a58 ddbd
000001c0: e06a ccbd b2c6 b6bd 0082 1c3a 805f af3a
000001d0: 701f 403d 28cd 0a3d 18bd ed3c e4e5 d2bd
000001e0: 0c14 fabd b008 dc3c 4077 873b 9cbd f13d
000001f0: 30d6 623d caeb f4bd be9a bcbd 68fe 5dbd
00000200: 86a2 dcbd 0058 c93c a095 9e3d 4696 e2bd
00000210: 2a8d c7bd 42f6 c9bd 3074 febc 2ab1 f0bd
00000220: 947b 7fbd 3099 93bc c62a d9bd a011 edbb
00000230: 9eb5 bbbd 98f7 8a3c de5b b13d 803b 84bd
00000240: 100e 03bd d004 ca3c 22e5 813d aeb5 de3d
00000250: 22ca 9dbd 8896 c9bc 7620 953d e0c9 29bc
00000260: 70d2 89bd 9852 d8bc 1030 27bc f0a2 3c3c
00000270: 740d 4ebd 00b1 333c ee27 bfbd 78dd 723d
00000280: e0fc bf3c b2f6 973d 7eb2 efbd de73 fb3d
00000290: e0d5 893b 3628 b93d b8f5 453d aa9a 993d
000002a0: c001 92bb 382c 65bd f8c2 3cbd 00ac 633c
000002b0: 8caf 663d fcf4 4a3d e4e5 d63d 40f4 c93b
000002c0: ac92 e03d 148c a6bd 3c77 c1bd 641f aabd
000002d0: 404b d9bc 64b8 933d 9c96 eebd 3824 833c
000002e0: 3c81 113d 428a 87bd 58e3 d43c 141f a9bd
000002f0: c642 fbbd 0082 97ba 6014 073d 383e 733d
00000300: 00d1 d23d 2cde e1bd acc5 ebbd 0087 35bd
00000310: 1cee 51bd 9889 cb3d 52be c9bd 8091 e13b
00000320: 1033 fb3d 1086 8ebc f439 a63d 9213 b9bd
00000330: 4890 f9bc f0ee e33d 981f b3bc a86e b53d
00000340: c08f 7e3d 8c92 38bd 6497 a7bd f025 473d
00000350: 08d9 81bc 081c e7bc eeee e13d c0a8 8cbc
00000360: 3cad 79bd 988f febc 12b3 f8bd 74de 2a3d
00000370: c6e6 d83d 3cc7 d53d c2d8 c0bd ae04 bf3d
00000380: a28f 88bd 4459 013d 20a0 2dbd c8a8 dabd
00000390: 96b2 f13d 5006 29bd 60b2 e8bb 26a7 afbd
000003a0: 92d0 a63d e0aa c93c 70df 313d 3841 81bc
000003b0: 9613 b5bd 9c98 45bd b822 c03c 8822 abbc
000003c0: e057 973d 7075 2d3d 3e4d 9bbd c014 cd3b
000003d0: 44d5 7fbd 50c0 d7bc f6bf ef3d 6e5f ee3d
000003e0: 7218 823d 3628 a13d c005 993b 223d e63d
000003f0: 2ecd f5bd 800f da3b 201e 163d 22e0 dfbd

conv4.bias f4 [64]
0.09040864 0.004743904 -0.025824517 0.067785785 -0.023014635 0.11700943 -0.04901661 0.112920344
-0.11229636 -0.0014215112 -0.11931008 0.09046075 0.0426331 0.06567679 0.09044415 -0.06616975
0.06299819 0.002420485 -0.027675912 0.021522835 0.12494144 0.025984958 -0.07732223 0.063527465
-0.09163399 0.023081988 -0.0862204 0.11914633 0.1001194 -0.058000818 0.03089258 -0.12430614
0.012761772 -0.09888537 -0.085530564 -0.03272459 0.12421438 0.027062044 -0.086939976 0.072353855
0.031276405 0.0055895746 0.02326554 -0.026093185 0.093920514 -0.09113012 -0.10204548 -0.033823743
-0.100783035 0.056318477 0.07273941 -0.08842246 -0.014219895 -0.095618546 0.02660042 -0.096675545
-0.06541102 -0.08758432 0.017585233 0.08829874 0.057316974 0.020507842 -0.07400672 0.08591895
00000000: 2a28 b93d c072 9b3b f08d d3bc 46d3 8a3d
00000010: 3089 bcbc a4a2 ef3d a4c5 48bd c842 e73d
00000020: a2fb e5bd 0052 baba d858 f4bd 7c43 b93d
00000030: 0ca0 2e3d 8e81 863d c83a b93d 0284 87bd
00000040: 3205 813d 00a1 1e3b 98b8 e2bc a850 b03c
00000050: 4ce1 ff3d 68de d43c 1e5b 9ebd b01a 823d
00000060: 9aaa bbbd 7016 bd3c 5294 b0bd fe02 f43d
00000070: 660b cd3d 4492 6dbd 7012 fd3c 3894 febd
00000080: c016 513c 6a84 cabd a62a afbd 380a 06bd
00000090: 1c64 fe3d 38b1 dd3c 960d b2bd 422e 943d
000000a0: b01b 003d c028 b73b 6097 be3c 60c1 d5bc
000000b0: 6659 c03d 6ea2 babd 38fd d0bd c48a 0abd
000000c0: 5667 cebd 34ae 663d 66f8 943d d616 b5bd
000000d0: 90fa 68bc a8d3 c3bd 20e9 d93c d4fd c5bd
000000e0: 36f6 85bd 685f b3bd e80e 903c f8d5 b43d
000000f0: 34c5 6a3d 1000 a83c d690 97bd 46f6 af3d

conv5.weight f4 [64, 64, 1, 1]
-0.033943906 0.043641046 0.0901808 0.06189193 -0.06937325 0.025909081 -0.025645569 -0.08786
-0.068970084 -0.076474845 -0.0449723 0.014529124 0.040106535 0.05966857 -0.023414493 0.078526944
0.023472771 0.05438663 0.092267945 0.036628395 0.055731088 0.042870358 -0.10765156 -0.056338057
-0.027554542 -0.031306222 0.10099417 0.01540035 -0.004223481 -0.034419134 0.04063961 -0.08142902
-0.086119145 0.03712669 0.071080774 0.024866581 -0.03704013 -0.06420867 0.113105446 0.0703993
0.06544365 -0.08071484 0.07576807 0.01384823 -0.039300814 -0.059073746 0.06440097 0.019765511
-0.07893579 0.110075116 -0.005968794 -0.018858314 -0.09525195 -0.11978038 -0.10962704 0.118042365
-0.019237995 -0.08906847 -0.11737341 -0.08387528 -0.052412614 -0.044253737 -0.11505413 0.05786784
0.0019678771 -0.00982137 0.040020466 0.038394734 -0.057837307 0.1096717 0.025371581 -0.0438056
0.011036038 0.025929168 0.025601551 0.078499734 -0.105292514 -0.009187356 0.009646744 -0.0725984
-0.044658914 0.06438781 0.08697033 -0.114589706 0.04914309 0.08249992 0.09672369 0.061061174
-0.00432384 -0.021222278 0.09370156 0.009060562 -0.073239595 0.08487482 0.10446045 0.10423206
-0.03138891 -0.11533746 -0.08044271 -0.013661623 -0.0225828 -0.08465484 0.076091215 0.109393746
-0.079520494 -0.11543122 0.08348213 0.03134285 0.113094404 0.05717513 0.042404845 -0.015617222
0.0708486 -0.04995556 0.091450274 -0.060297295 0.013356686 -0.0636832 0.10440861 -0.0044047385
-0.07476838 -0.11100413 -0.004622519 0.11216189 0.021720529 -0.101454616 -0.08259307 -0.047957197
-0.053869456 -0.10697819 -0.04433866 0.010379672 -0.10811038 -0.016080737 -0.029025584 -0.07155797
0.005324036 0.11034535 0.0031951368 -0.083501846 0.023322225 0.057796597 -0.094916746 0.11097631
-0.027984798 0.054563537 0.012043297 0.04416421 -0.09592469 0.009767994 0.04526958 0.07205728
-0.107045665 0.0503771 -0.0016348362 0.09902774 0.056963757 -0.00031623244 0.029372185 0.056253657
-0.11920343 0.06401107 0.05590476 -0.04457119 0.020458922 -0.03785652 0.12447314 -0.111773
-0.011624634 0.098251194 0.11019534 -0.009696394 -0.11746973 -0.05225499 0.09684482 -0.066010535
0.059847385 -0.05216126 0.045962647 -0.043835923 -0.06919347 0.11532201 0.11541255 -0.07531032
0.017630339 0.08537668 0.024584368 -0.005360082 -0.08929987 0.06366213 -0.083217174 -0.11688292
0.07123384 0.094601646 -0.012081116 0.10285792 0.093211144 -0.060859844 0.06450616 -0.10439752
-0.0007260144 -0.0002528429 0.068846285 -0.11163555 0.11069772 0.008130416 0.11519556 -0.123908356
-0.07329346 -0.08921419 -0.077213734 -0.09864831 0.006208837 0.049975693 -0.042214602 0.022073895
-0.11731492 -0.039002255 0.017050982 -0.0009521395 0.045687675 -0.08990945 0.06477907 -0.08919379
-0.112293735 -0.07661924 0.079787835 -0.04966174 -0.017893359 0.118653044 -0.063045695 -0.084589675
0.1140649 -0.10133153 0.08758508 0.036543965 -0.09157497 -0.08223462 -0.027009308 0.09823048
-0.048854306 0.0586735 0.10842955 -0.028430894 -0.105571404 0.075905934 0.11918305 -0.0029809922
0.07360394 -0.111048296 0.039226487 0.009085685 0.0952753 -0.008988902 0.051288724 0.040968522
00000000: c408 0bbd f4c0 323d b6b0 b83d 6482 7d3d
00000010: 9013 8ebd 483f d43c a816 d2bc f2ef b3bd
00000020: 3040 8dbd d89e 9cbd e034 38bd 900b 6e3c
00000030: c046 243d 0867 743d c0cf bfbc bcd2 a03d
00000040: f849 c03c 84c4 5e3d faf6 bc3d a807 163d
00000050: 4846 643d d498 2f3d 6c78 dcbd bcc2 66bd
00000060: 10ba e1bc f43a 00bd 08d6 ce3d c051 7c3c
00000070: 2065 8abb 14fb 0cbd b875 263d 42c4 a6bd
00000080: 3c5f b0bd 2812 183d cc92 913d 00b5 cb3c
00000090: 64b7 17bd d67f 83bd d4a3 e73d 822d 903d
000000a0: 5207 863d d24d a5bd 4a2c 9b3d b0e3 623c
000000b0: e4f9 20bd 50f7 71bd a8e4 833d 48eb a13c
000000c0: 16a9 a1bd 106f e13d e095 c3bb c07c 9abc
000000d0: 7413 c3bd 6a4f f5bd 2484 e0bd 32c0 f13d
000000e0: 0099 9dbc 8869 b6bd 7861 f0bd cec6 abbd
000000f0: 9cae 56bd 6843 35bd 80a1 ebbd d406 6d3d
00000100: 80f7 003b d0e9 20bc 80ec 233d cc43 1d3d
00000110: d0e6 6cbd 8e9b e03d 10d8 cf3c 806d 33bd
00000120: 80d0 343c 6869 d43c 58ba d13c 78c4 a03d
00000130: 9aa3 d7bd 9086 16bc 600d 1e3c 78ae 94bd
00000140: 44ec 36bd c2dd 833d 801d b23d 02ae eabd
00000150: 444a 493d b8f5 a83d 1217 c63d 481b 7a3d
00000160: 00af 8dbb 58da adbc 9ae6 bf3d c072 143c
00000170: a4fe 95bd dad2 ad3d 5cef d53d 9e77 d53d
00000180: a891 00bd 0c36 ecbd 26bf a4bd 00d5 5fbc
00000190: 90ff b8bc 845f adbd b6d5 9b3d d409 e03d
000001a0: a4db a2bd 3467 ecbd aef8 aa3d 5c61 003d
000001b0: 0a9e e73d 7830 6a3d b4b0 2d3d 60df 7fbc
000001c0: 1219 913d 349e 4cbd 484a bb3d 4cfa 76bd
000001d0: 00d6 5a3c 566c 82bd 2ed4 d53d a055 90bb
000001e0: 2a20 99bd 2256 e3bd 8078 97bb 22b5 e53d
000001f0: 40ef b13c 70c7 cfbd 8e26 a9bd c46e 44bd
00000200: 38a6 5cbd 6217 dbbd 749c 35bd 800f 2a3c
00000210: fa68 ddbd c0bb 83bc 10c7 edbc fc8c 92bd
00000220: 4075 ae3b befc e13d 8065 513b 0403 abbd
00000230: 400e bf3c 20bc 6c3d b663 c2bd 8c47 e33d
00000240: 6040 e5bc 047e 5f3d 4051 453c 88e5 343d
00000250: 2a74 c4bd f009 203c 986c 393d c492 933d
00000260: c23a dbbd 3858 4e3d 0048 d6ba 0ecf ca3d
00000270: d452 693d 00cc a5b9 f09d f03c 3c6a 663d
00000280: ee20 f4bd 3c18 833d 64fc 643d 4890 36bd
00000290: 7899 a73c 700f 1bbd c6eb fe3d 3ee9 e4bd
000002a0: 4075 3ebc ec37 c93d 18ae e13d a0dd 1ebc
000002b0: f893 f0bd 5409 56bd 9456 c63d 8830 87bd
000002c0: 8822 753d 0ca7 55bd 5443 3c3d 4c8d 33bd
000002d0: 4eb5 8dbd f22d ec3d 6a5d ec3d 4c3c 9abd
000002e0: 806d 903c f8d9 ae3d 2865 c93c a0a3 afbb
000002f0: dae2 b6bd 4a61 823d c46d aabd 5060 efbd
00000300: 0ce3 913d 82be c13d e0ef 45bc 2ca7 d23d
00000310: 7ce5 be3d 2c48 79bd ce1b 843d 5ece d5bd
00000320: 0052 3eba 0090 84b9 48ff 8c3d 2ea1 e4bd
00000330: 7cb5 e23d 7035 053c a6eb eb3d aac3 fdbd
00000340: e21a 96bd eeb5 b6bd 3c22 9ebd 2008 cabd
00000350: 8073 cb3b 50b3 4c3d 38e9 2cbd 50d4 b43c
00000360: ce42 f0bd d4c0 1fbd 80ae 8b3c 0099 79ba
00000370: 0023 3b3d 7222 b8bd e4aa 843d 3cab b6bd
00000380: 42fa e5bd 8cea 9cbd ce67 a33d 1c6a 4bbd
00000390: 1895 92bc 5e00 f33d 1a1e 81bd 5a3d adbd
000003a0: dc9a e93d e886 cfbd ce5f b33d 20af 153d
000003b0: a88b bbbd a06a a8bd a042 ddbc 102d c93d
000003c0: 741b 48bd a053 703d 5010 de3d e8e7 e8bc
000003d0: d235 d8bd 9274 9b3d 3e16 f43d c05c 43bb
000003e0: aabd 963d 4a6d e3bd f4ab 203d 20dc 143c
000003f0: b21f c33d 3046 13bc 2014 523d 9cce 273d

conv5.bias f4 [64]
0.11926791 0.073850855 0.0050005615 -0.09387794 -0.09931345 0.02767475 -0.12458593 0.004986614
0.06424937 0.099223614 0.092538014 0.03722544 -0.08756192 0.0800253 -0.07229012 -0.0560084
-0.07458992 -0.003264606 -0.0622181 -0.11758278 -0.06262764 0.11230679 -0.018674135 0.083076
-0.054181755 0.032567263 0.090978354 -0.09234184 0.047225058 0.012266204 0.08257353 -0.022008523
-0.10046172 -0.07501255 0.022827059 0.025790513 0.028441533 0.096580505 0.011075839 0.011929795
0.039657265 0.060115293 0.008827746 -0.014369577 0.023338035 -0.07760492 0.005217105 0.056014463
-0.007779941 -0.0069275647 0.017635196 -0.11369969 0.038404778 0.043696046 -0.075503126 0.03337276
-0.022481889 0.038551956 0.122979894 0.034836143 0.07045156 -0.11862971 -0.016572222 0.1194341
00000000: bc42 f43d 1e3f 973d c0db a33b 1443 c0bd
00000010: da64 cbbd 28b6 e23c e826 ffbd c066 a33b
00000020: 2c95 833d c035 cb3d 9284 bd3d b479 183d
00000030: aa53 b3bd 4ee4 a33d d80c 94bd 1069 65bd
00000040: 9ac2 98bd 00f3 55bb 68d8 7ebd 3ecf f0bd
00000050: ec42 80bd 1a01 e63d 80fa 98bc c023 aa3d
00000060: b0ed 5dbd 4065 053d dc52 ba3d b81d bdbd
00000070: 106f 413d 30f8 483c 501c a93d 384b b4bc
00000080: e0be cdbd 2ea0 99bd d0ff ba3c a046 d33c
00000090: 38fe e83c 00cc c53d 7077 353c 3075 433c
000000a0: a86f 223d 743b 763d 40a2 103c 606e 6bbc
000000b0: 682f bf3c 54ef 9ebd 40f4 aa3b 6c6f 653d
000000c0: e0ee febb a000 e3bb b077 903c 62db e8bd
000000d0: 544e 1d3d a0fa 323d 62a1 9abd e0b1 083d
000000e0: f02b b8bc a8e8 1d3d e2dc fb3d 58b0 0e3d
000000f0: e848 903d 22f4 f2bd 78c2 87bc de99 f43d
