demo/DemoCustomModule.pth (torch, 16135 bytes, 8 tensors)

b1.0.weight f4 [32, 64, 1, 1]
00000000: c616 a93d 646e bfbd de9f d03d 7acd a33d
00000010: cc17 d73d 1447 c4bd e0d4 abbd 24a1 733d
00000020: f0f7 eebd c805 fd3d 38f7 d93c f03d 843c
00000030: caec dabd c029 233d 782a 5c3d 8076 a23c
00000040: 0e3c f63d 30c3 193d e200 e3bd e218 d73d
00000050: d4d6 2d3d 6440 74bd 6027 ebbd 36f0 913d
00000060: 5848 f33d 66be d1bd 60d9 df3b 04b1 373d
00000070: 44c9 71bd 100f e0bc 58f0 aabd a80e 72bd
00000080: 0663 e9bd 80db 3dbb fcc9 973d e405 793d
00000090: 127d f03d 2cd5 e0bd 70fd 7bbc d23f f93d
000000a0: f0ad a73c fc61 10bd 5c8e e6bd 9c41 6e3d
000000b0: 2059 c23d 9c47 cd3d 0a50 d63d d079 c83c
000000c0: 0076 b63d c0e0 00bd 08e7 cf3d 2039 2fbc
000000d0: e02a d3bc 5c82 7ebd 664d 883d 6c28 4f3d
000000e0: 3ed6 a23d fc99 a3bd 781d 88bd 4c42 f23d
000000f0: 2e17 8ebd 5a00 92bd b4fd 08bd b87b 25bd
00000100: 1e19 aebd eae1 ce3d 7048 643c 906d 693d
00000110: d8e2 bd3d 26e3 a5bd 3c6d c33d 843e 80bd
00000120: a807 a3bc d6bb c13d 8606 ec3d f8ba e03d
00000130: 823b 933d 6ef1 ed3d f479 38bd 505a 02bc
00000140: c81e 2fbd 5086 16bc 3006 79bc 42c6 883d
00000150: b2f5 af3d 5659 b8bd f25c 8dbd c077 1dbd
00000160: f0e2 883c c8bf 46bd 4c38 9fbd 0807 bbbc
00000170: dcdb 79bd 8089 613b a281 bdbd 80fb ffbc
00000180: ece9 3cbd f072 8dbc 5a25 c93d 76dd a73d
00000190: a039 25bd e6b4 eabd 141d b7bd 2a66 c4bd
000001a0: 8051 42bc 845f 63bd c0e7 b2bd 600a e33c
000001b0: c0ca 033c d883 99bc c899 39bd 5e31 da3d
000001c0: 449f f6bd 802b 43bb 00ae 6d3d cebf b43d
000001d0: f2b6 debd 5059 a0bc f67f d53d 8090 a83c
000001e0: 00d1 1a3d e03b 62bd b4ab b13d 50ff 3fbd
000001f0: 04db 89bd 4a35 e83d 78a1 073d 0035 62ba
00000200: f668 b2bd b8a8 e2bc d4a8 c4bd 983e acbd
00000210: d8a5 92bc 90f6 c53c 88c2 d1bd b6ce f83d
00000220: 3a48 bc3d 503e eebd f004 a03d 3e9e 99bd
00000230: 489c d0bd 9ed5 ef3d e8e2 4dbd 74d7 29bd
00000240: f036 7f3c 28b2 903d 108b 1d3c 0498 09bd
00000250: 80a4 2d3c c0a2 84bd 5c36 babd 3450 053d
00000260: c0cd 573c ec67 7e3d 4434 3ebd dc06 fdbd
00000270: 6016 febc 5eb5 f7bd a03e 21bc e81c 7a3d
00000280: 307d 3d3c e8e2 923d 58ff be3c 708d 5b3d
00000290: a66f e63d 885d 983c 2068 aa3c b8be 4fbd
000002a0: e6a1 9f3d 48c0 d63d aece b1bd 287a f83d
000002b0: 8072 1a3d b0e7 8ebc c24b eabd e2d5 ffbd
000002c0: 0819 c9bd d423 d6bd 74b7 aabd dc19 15bd
000002d0: 827f d4bd 4403 d6bd 20ef 63bc 7c62 d7bd
000002e0: 6028 39bc c871 ae3c 9854 c23c 80a7 a03d
000002f0: 10bc 8b3d f096 8fbd 1470 2cbd 409e 3b3b
00000300: 8e0b d83d 307c 783d d842 8fbd 504c 70bc
00000310: 4016 b93c 28d3 313d a840 3ebd 08a8 e0bd
00000320: 7026 9cbd 00d4 8c3b e2b2 aebd b881 0e3d
00000330: 8aeb a03d 80ee b2ba 7c4d 863d d653 b33d
00000340: 5671 a33d 38cf f3bd 0006 e83d 0862 073d
00000350: fcc8 fdbd 88cf fe3c 4a48 b0bd 82f5 ec3d
00000360: 5afd ca3d 52da a8bd 02be bdbd 1010 103c
00000370: a4a1 07bd c83a 5b3d 547b eebd 26cc bd3d
00000380: 60a3 373c 00e6 203b 804a a3bd a089 fe3b
00000390: 92ec ad3d 0267 f93d eecd a5bd 009b 56bd
000003a0: 40f3 d43c 2ef3 8f3d b2de d6bd 1c12 3fbd
000003b0: 7862 cbbd de3d eb3d bcb8 2ebd b6f8 993d
000003c0: 488c 8b3d 2007 3d3c 08bb c73c ae88 a63d
000003d0: d85d 81bc f8b9 863d e042 88bc 80e4 003b
000003e0: 8804 2f3d c4f7 e6bd ccc6 73bd 3e53 ccbd
000003f0: 38b2 1bbd d0cd 00bc 7460 4c3d fee1 ccbd
0.08256297 -0.09347227 0.10186742 0.07998176 0.10502586 -0.095838696 -0.08390212 0.059479848
-0.11668384 0.12354618 0.02660714 0.016142815 -0.10689695 0.039834738 0.05375144 0.019831896
0.12023173 0.03753966 -0.11084153 0.10502793 0.042441204 -0.05963172 -0.114821196 0.07125895
0.11879033 -0.10241394 0.006831333 0.04484655 -0.059029832 -0.027350932 -0.08346623 -0.05909601
-0.1139584 -0.0028969944 0.07411572 0.060796633 0.11742605 -0.10978159 -0.015380248 0.12170376
0.020468682 -0.035249695 -0.11257622 0.05816804 0.094896555 0.10023424 0.10464485 0.024472147
0.089092255 -0.03146434 0.101514876 -0.010694772 -0.02577728 -0.06213604 0.066553876 0.05057566
0.0795102 -0.079883546 -0.06646246 0.118290514 -0.06938015 -0.07128973 -0.033445075 -0.04040119
-0.085008845 0.101016834 0.013933286 0.056989253 0.09271783 -0.08099966 0.09542319 -0.06261924
-0.019901112 0.09459655 0.11524682 0.109731615 0.071890846 0.11618315 -0.04503818 -0.0079561025
-0.042753965 -0.009187296 -0.015199229 0.0667844 0.085917845 -0.090014145 -0.069024935 -0.03844428
0.016709775 -0.04852274 -0.0777441 -0.022830501 -0.06100069 0.0034414232 -0.09253241 -0.031247854
-0.046121523 -0.01726672 0.09821577 0.08196537 -0.04033816 -0.11460285 -0.08941093 -0.09589799
-0.011860251 -0.055511013 -0.08735609 0.027714908 0.008043945 -0.018739626 -0.045312673 0.10653947
-0.12042096 -0.0029780567 0.058027267 0.08825646 -0.10874738 -0.019573838 0.10424797 0.020576715
0.037796974 -0.055232882 0.08675328 -0.046874344 -0.06731227 0.11338289 0.033112973 -0.00086291134
-0.08711426 -0.027668342 -0.09602514 -0.08410376 -0.017901346 0.024165422 -0.10242182 0.12148802
0.091934636 -0.11632979 0.07813442 -0.075008854 -0.10186058 0.11710666 -0.050265223 -0.041465238
0.015577063 0.070652306 0.009615675 -0.03359224 0.010598302 -0.064763546 -0.090923995 0.03254719
0.013171613 0.062110826 -0.046436563 -0.12354824 -0.031016529 -0.1209514 -0.009841591 0.061062723
0.011565492 0.07172185 0.023315117 0.053601682 0.11251764 0.018599287 0.020801604 -0.050718993
0.077945516 0.104858935 -0.08681999 0.121326745 0.037706852 -0.017444462 -0.11440231 -0.12491967
-0.098192275 -0.104560524 -0.08335772 -0.036401615 -0.10375883 -0.104498416 -0.013911992 -0.10516831
-0.01130113 0.02129449 0.023721978 0.07844448 0.068229795 -0.07011211 -0.042099074 0.002862826
0.10549079 0.06066531 -0.06995171 -0.014666632 0.022593617 0.043414265 -0.04644838 -0.109695494
-0.07624519 0.0042977333 -0.08530213 0.03479168 0.078574255 -0.0013651401 0.06557748 0.08756225
0.079806015 -0.11904758 0.113292694 0.033052474 -0.1239185 0.031104818 -0.08607538 0.115702644
0.09911604 -0.08244766 -0.09264757 0.008792892 -0.033113137 0.053522855 -0.11644617 0.09267454
0.011208385 0.0024551153 -0.07973194 0.007767871 0.08492388 0.1217785 -0.080959186 -0.052393913
0.025994897 0.07028805 -0.104916945 -0.04664813 -0.09930891 0.114864096 -0.042656645 0.07518141
0.06813866 0.011537343 0.024381176 0.08131538 -0.015791818 0.065784395 -0.016633451 0.0019667447
0.04272893 -0.11277726 -0.05951576 -0.09976815 -0.03801176 -0.0078615695 0.049896672 -0.10004042

b1.0.bias f4 [32]
00000000: 5c38 17bd 367f dd3d 924d bebd 50ef 52bc
00000010: 402b 693b 380e 3a3d 4609 b03d a057 adbb
00000020: e81a e13d 4832 b1bd 005d 29ba 064d b93d
00000030: 927b fa3d 2881 bb3c 407a 57bb c055 953d
00000040: 6a1a b6bd 9c2b 283d be6d 863d 4294 febd
00000050: 5a5b 83bd 08a6 0d3d a062 313d fc5c aabd
00000060: 80d4 74bb 325a cf3d f83e 22bd b09e 1abd
00000070: 0834 8bbc b0a9 cabc 1c78 a53d 448f b83d
-0.036918983 0.10815279 -0.09292139 -0.012874439 0.0035578758 0.045423716 0.08595519 -0.0052899867
0.1099146 -0.086521685 -0.00064606965 0.09047894 0.122306004 0.022888735 -0.0032879263 0.07291746
-0.08891757 0.041057214 0.065639004 -0.12430622 -0.06413908 0.034582168 0.043306947 -0.083185166
-0.0037358105 0.10124625 -0.039610833 -0.037748992 -0.016992584 -0.024739116 0.0807955 0.09011701

b2.0.weight f4 [16, 32, 1, 1]
00000000: 0c75 0f3d 37ba d2bd 32fa 2cbe eff3 0abe
00000010: 5b60 f6bd 7cb9 06bc 12b6 69bb 6f43 6d3d
00000020: acfd e6bd d665 e53c 7be2 adbd a533 c13d
00000030: 4810 bebd 9544 dc3c fc6c f6bd bdd3 b23d
00000040: 29a2 cebd 6760 7ebd 0855 dfbc 28ea f3bd
00000050: 753f 21bd 683e 38bc bf7a 7d3c d74a d13d
00000060: f4c1 bebd a928 023e 3aa0 95bd d2ca 19bd
00000070: 01d8 1fbc 0a57 393d 82dc 2a3e 0a80 033e
00000080: 0f9d 953c 30c5 1cbe 8df6 32bd 289a 053e
00000090: ccb0 f2bd ca64 a3bd d43d 8fbd f87a a4bd
000000a0: 5d38 b63b 65c1 00be 9a93 1ebe b1bb 5f3d
000000b0: 7d0e de3d b674 9dbc d4b0 cdba 96e2 2a3e
000000c0: b812 d6bd f9e9 853d bdda 91bd a048 fa3d
000000d0: e013 61bd 9e60 59bd 4fc8 213e 803c 20bc
000000e0: 676c 30be 02b9 4cbd 1a85 4c3d 83c4 1a3e
000000f0: 4edd fc3d 09ce d6bd 629a f4bd 96e9 1cbd
00000100: bf67 f83c d7c5 26be 5c96 00bd dd22 58bd
00000110: de6a 733d 3f55 183d 3ef1 12bd a6d4 d53d
00000120: aa43 2c3e f324 283d 5c05 7a3c f982 323e
00000130: 4c53 e13b 70e7 843d 142b 0abe 6d70 983d
00000140: 33ba 1c3e c2bc 07be dc01 2bbe 5d2f fb3d
00000150: 9bc5 2abe b57d 853d 5774 683b d48b 35bc
00000160: a3de eebd e2e3 153e 00b0 153e ba47 0f3d
00000170: 43d4 1c3d 979d ed3d 2196 fc3d a3da 6e3d
00000180: 08a4 063e 2b1b 0d3c 3421 d43d c365 ebbc
00000190: 47d8 25be 4e96 d23c 82c6 ee3c c4c1 fd3d
000001a0: 9c41 80bd cd2c 443d f6d2 31be 6772 29be
000001b0: 12c0 9b3c cc32 a33d 15a6 bfbd 5277 0f3e
000001c0: 04e5 63bd 2a37 483d 1ad8 febd 7ff9 7dbc
000001d0: c494 7f3d c836 173e 6362 11bc 8164 d33d
000001e0: 6c2f e1bd c7e8 83bd 21ad 20be d051 d9bd
000001f0: ecf2 033e fd17 fe3c b188 b5bd ed48 e03d
00000200: faf5 32bc fb09 95bc 7d1b ecbc 31b7 2abe
00000210: 42fd 8a3b 0f91 153d 6c6c e5bc 9c71 51bc
00000220: a20f 0a3e a053 f23d 6f99 99bd 1873 f63d
00000230: 77b7 3f3d c0b4 10be 91a3 da3b 33f0 0fbe
00000240: c547 c4bd eb13 07be 9fa2 ad3d c195 143e
00000250: 3482 a7bd 9bbf e13d 864b e8bd c177 30be
00000260: 4bfc 26bd 9108 eb3d 1975 1f3e 4809 023d
00000270: 39b7 7e3d 8cb1 57bd 700d 453c 4ac9 a9bd
00000280: 5793 c23c 97fc 1d3e e512 74bd 8d89 79bd
00000290: a597 2b3e 7005 fcbc bf3b 963d 1b9f 01bb
000002a0: c2e9 a13d 6756 dabc 6a4b 2ebe 49c4 25bd
000002b0: 072e 1cbd b8be 113e 51a5 17be f807 323e
000002c0: 879f 16be 6c58 aa3c 1f97 353d bfee 403d
000002d0: ff5a bfbd f454 84bc be06 d6bd 716f 29be
000002e0: e3e6 3a3d a55c 693d 33df f53d 5883 08be
000002f0: d05e a13d 4ff2 bfbd 8b1e f5bd 94bf 06be
00000300: ca26 893d 8114 16be 417d 7bbd 2212 07be
00000310: cbf3 babd 3aec 33bb f8e8 f63d efb9 01bd
00000320: 7aa6 08be 5e4c 283b 37ae 02be 75ba b03c
00000330: 8443 0dbd cd4d 873d b2e9 18bd 6cf2 60bd
00000340: 334f 283e a1b5 153d 10c5 343e b637 90bd
00000350: 4d28 ffbd e6b7 22be cccf d33d 5988 ecbd
00000360: b8a2 163e 7789 fdbd 558b 1abe 2fea 83bd
00000370: 6961 333e 72b5 103e f7a5 9bbd 0ce4 f33d
00000380: e2ba 243e 4b4b 013d 3cd5 f9bd 1b86 fd3c
00000390: 768e 22be 9422 2cbe 5962 30be 4338 1d3e
000003a0: 5059 a5bd 6512 55bc 5709 193e 701c 983d
000003b0: 4378 b33c d35e 1c3e 0a03 153e 2f0e 98bc
000003c0: 859b 33be d7b2 163e fdfd 063c 6f39 c3bd
000003d0: 1553 943d 7247 e63d 2872 453d dabd 90bd
000003e0: d03e a2bd 1c3a b23d 9edd f93d ef9e fc3d
000003f0: fdea 02be bcab d5bd 5367 0bbe d75c 8dbb
0.035023734 -0.10289424 -0.16892317 -0.13569616 -0.12030097 -0.008222934 -0.00356615 0.057925638
-0.11278853 0.02800266 -0.08490463 0.094336785 -0.09280449 0.026888171 -0.12032506 0.08731792
-0.10089523 -0.062103655 -0.027262226 -0.11909896 -0.039367158 -0.011245348 0.0154711595 0.10219353
-0.093143374 0.12710823 -0.073059514 -0.03754694 -0.009756089 0.045249023 0.1668568 0.12841812
0.018263368 -0.15309596 -0.04369216 0.13047087 -0.118501276 -0.07978208 -0.06994215 -0.08031267
0.0055609182 -0.12573774 -0.15485993 0.054622356 0.10842607 -0.019220691 -0.0015692958 0.16687998
-0.10452789 0.06538767 -0.07121799 0.12220883 -0.054950595 -0.053070657 0.15799068 -0.009780049
-0.17228852 -0.049981125 0.049931623 0.15114026 0.12346898 -0.10488517 -0.11943509 -0.038308702
0.030322907 -0.16286407 -0.031393394 -0.052767623 0.05942809 0.037190672 -0.035874598 0.1044095
0.16822687 0.041050863 0.015260067 0.17432775 0.006876385 0.06489456 -0.13492996 0.074433185
0.15305404 -0.13255599 -0.16699928 0.12264893 -0.16676943 0.06518117 0.0035469735 -0.011080701
-0.11663558 0.14637712 0.1461792 0.034980513 0.038288366 0.116023235 0.12333322 0.058313977
0.1314851 0.008612434 0.103578955 -0.028735047 -0.16195785 0.025706436 0.02914739 0.123904735
-0.06262514 0.047894288 -0.17365631 -0.16547547 0.019012485 0.07968673 -0.093578495 0.14010361
-0.05563833 0.048880734 -0.12443562 -0.015501379 0.062397733 0.14766991 -0.008873555 0.10321904
-0.10995373 -0.06440883 -0.15691043 -0.106113076 0.12885636 0.031017298 -0.088639624 0.109514095
-0.010922903 -0.018193236 -0.028821701 -0.16671444 0.0042416165 0.03651529 -0.028005801 -0.012783434
0.13482526 0.118323565 -0.07499968 0.12033671 0.046805825 -0.1413145 0.0066723307 -0.14056472
-0.095840015 -0.13191192 0.08478283 0.14510252 -0.08179131 0.11022874 -0.1134253 -0.17233182
-0.04076795 0.11476243 0.15572013 0.031747133 0.062186453 -0.052659556 0.0120271295 -0.08290346
0.023751898 0.15428387 -0.05958833 -0.060922194 0.16757067 -0.030764312 0.073356144 -0.0019778672
0.07905914 -0.026652528 -0.17020956 -0.040470395 -0.038129833 0.1423291 -0.14809157 0.17385852
-0.14709292 0.020794116 0.044333573 0.047102686 -0.09343528 -0.01615379 -0.10450505 -0.16546418
0.045630347 0.05697312 0.120054625 -0.13331354 0.07879412 -0.093723886 -0.11968716 -0.13159019
0.066968516 -0.14656259 -0.06139875 -0.13190511 -0.09128531 -0.0027454034 0.12056154 -0.03167146
-0.13344756 0.0025680284 -0.1276177 0.021573285 -0.034488216 0.06606636 -0.037332244 -0.05491869
0.16436462 0.036550168 0.17653298 -0.07041876 -0.12458859 -0.15890464 0.103423685 -0.11549444
0.1471051 -0.12379735 -0.15092213 -0.06441151 0.17517628 0.14131716 -0.07600015 0.11908731
0.16086915 0.031565946 -0.12198874 0.030947736 -0.15874657 -0.16810066 -0.17225017 0.15353493
-0.08073676 -0.013004874 0.14944969 0.07427299 0.021907931 0.15270548 0.1455194 -0.01856145
-0.17539795 0.1471666 0.008239266 -0.09532439 0.07242409 0.11244096 0.04820457 -0.07067461
-0.07922137 0.0870249 0.12200473 0.12335002 -0.12784953 -0.10433146 -0.13613634 -0.004314046

b2.0.bias f4 [16]
00000000: ae24 463d 9b71 31be 1693 51bd 74ee 453d
00000010: 8bdb 2fbe accb 3d3d ba8f 01bd 610b 89bd
00000020: 6445 2a3e 5bdf 1f3e c6a9 b9bb 5cc1 ddbd
00000030: 78ba 083d ac1d 0cbc 4eed 313e 015f c8bd
0.048374824 -0.17328493 -0.051165663 0.04832311 -0.17173593 0.046336815 -0.03163121 -0.066916235
0.16628033 0.15612547 -0.0056659905 -0.10827896 0.033380955 -0.008551996 0.17375681 -0.097837456

conv10.weight f4 [64, 3, 1, 1]
00000000: 828e bf3e da24 e4be 88ca bdbe 3d17 81bd
00000010: 8068 633e 9892 12bf a0b4 1f3e c545 7e3e
00000020: 73b0 48be f584 0fbf 1abd fd3c f470 8b3e
00000030: e936 0abf d403 043e 9587 5ebe 275b 373c
00000040: 4cd5 81be d0f3 803e 9666 14be e48e f9be
00000050: e08d 553d d116 bfbd 1af5 bcbe 7f5d 00be
00000060: 85ac 983e ec01 58be 000a 6a3e 8c4c 77be
00000070: e35f 083f a289 ef3e 2f6f 893e de63 c2be
00000080: 95bb d13e 3967 9e3e 7713 163e 8eba 7c3e
00000090: 9ada 093f 360a bf3e 2caa 883e 8459 6dbe
000000a0: af7f 09bf 5123 3a3e 5eb8 c23e e7e7 ad3e
000000b0: 2865 0fbd 9fd3 de3e 67a2 203e a115 11be
000000c0: 8652 01bf 4db7 81be b7a0 5dbe 8bd6 ea3e
000000d0: 7a8e 093f e5f7 78be e97d 8fbe cb62 833e
000000e0: dc46 eebd 9beb 0fbd 324b 78be 20fb 0f3d
000000f0: 8426 e8be f972 0d3f 533e 563e 9516 e5be
00000100: 7d0e a73e a6d7 6ebe 8ec0 a23e e674 cdbe
00000110: 9772 133f 0fde f93e 7060 4dbe da45 c13e
00000120: 526b 853c 3101 f03e 242a 04bf 6af4 b83e
00000130: afc1 7f3d a26f 0c3f f054 9fbe c188 273c
00000140: 5cca b1bd be37 9a3e 95ff 463e 1990 5ebd
00000150: 4130 8b3e 253f 2dbe cac2 6d3d a811 413d
00000160: c5c4 183d 95e3 783d 24b4 6dbe 3381 7bbe
00000170: 058a 9fbe 3988 693e 7c72 53bd 1c6b 063f
00000180: 742f a93e ff27 91bd b2e0 4abe 4944 10bf
00000190: c3af b4be e649 7a3e f2ef 8e3e 520a 8abe
000001a0: 33e9 dabe 3104 f93e 376f 04be 25b2 75be
000001b0: 65de 6f3d afeb b1be 61ef 11bf c940 c23e
000001c0: 2c0a c4bb c4ea cabe c599 113f aad9 1a3d
000001d0: ee22 96bd 18bd 5d3e 55e6 07be 7e0c 55be
000001e0: 704f c5bd 0b3a 323e 20e1 9f3e 63fd 503d
000001f0: 1005 90be c2c5 94be 5f19 523e 2d20 38be
00000200: 4d5a 333e b606 e13e 9210 8b3c 1668 b33e
00000210: 19a8 153e bf8a 0c3f 2460 f53e 8a3f 5ebe
00000220: 1c84 ce3e 44e9 2ebd ff79 9c3e 649f 393d
00000230: d256 813d dbe9 e83e 2e84 4e3d 547c 16be
00000240: 49b2 08bf 96b0 893e 6765 ebbe f70b 69be
00000250: 3572 fc3d a0de 063f 02de 94be b455 503e
00000260: 38db 0f3f a0d0 b7be 9f24 e93e 0b2b 923e
00000270: b3ee 183e 517f 5c3e 6f4d 7abe b447 83bd
00000280: eb41 583e c6c7 3e3e 7522 ed3e 3c33 f4be
00000290: 05d8 bdbe c497 123f 54fb a4be ff27 a0be
000002a0: 6c68 723e 4b87 453e 936e 74be cb51 973e
000002b0: 1ca7 a63e 151f a83d e074 7b3e 9921 1b3e
000002c0: 91e8 1e3e e48e 2b3d b51e 2ebe e8ff 603e
000002d0: b0f3 0c3e d589 af3e eb44 48be eb3f 0fbf
000002e0: ef4c c0be 499d 11bf db53 b93e be79 ccbe
000002f0: c31a 513d a490 5ebe d032 df3e 6984 053f
0.37413412 -0.44559366 -0.37068582 -0.063032605 0.22207832 -0.57254934 0.15596247 0.24831302
-0.1959856 -0.5606225 0.03097396 0.27234614 -0.53990036 0.12892085 -0.21731408 0.011191166
-0.25358045 0.25186014 -0.14492258 -0.4874183 0.052137256 -0.09330524 -0.36905748 -0.12535666
0.29819122 -0.21094483 0.22855377 -0.24150294 0.5327131 0.46784693 0.2684264 -0.37966818
0.40963426 0.30938128 0.14655863 0.2468054 0.53849185 0.37312478 0.2669233 -0.23178679
-0.53710455 0.18177535 0.38031286 0.3396599 -0.03500858 0.4352083 0.15686952 -0.14168407
-0.50516546 -0.2533516 -0.21643339 0.45866808 0.53733027 -0.24313314 -0.2802575 0.2566131
-0.11634609 -0.0351368 -0.24247435 0.0351516 -0.45341885 0.5525356 0.20922212 -0.4474379
0.3262824 -0.23324451 0.31787533 -0.4012825 0.57596725 0.4880223 -0.20056319 0.37748605
0.016286526 0.4687591 -0.516268 0.36123973 0.06244057 0.5485784 -0.3111949 0.010225476
-0.08681175 0.30120653 0.19433434 -0.05433664 0.27185252 -0.16918619 0.058047093 0.04713598
0.03729703 0.060763914 -0.2321325 -0.24561004 -0.31159988 0.22805871 -0.051622853 0.52507186
0.33044016 -0.07087707 -0.19812277 -0.56354195 -0.35290346 0.24442253 0.2791744 -0.26961
-0.42756042 0.4863601 -0.1293305 -0.23993738 0.0585617 -0.34750125 -0.5700589 0.37940052
-0.005982658 -0.39632237 0.5687526 0.037805237 -0.07330881 0.21654165 -0.13271458 -0.20805547
-0.09634292 0.17404954 0.31226444 0.0510229 -0.28128862 -0.29057127 0.20517491 -0.17981024
0.17514916 0.43950433 0.016975675 0.3504035 0.14614905 0.5489921 0.47924912 -0.21703926
0.40335166 -0.04270293 0.30561826 0.045318022 0.06315388 0.45490918 0.050419025 -0.14695865
-0.5339704 0.26892537 -0.459758 -0.2275847 0.12326471 0.5268345 -0.2907563 0.20345193
0.56193876 -0.35901356 0.45535752 0.28548464 0.14934807 0.21532942 -0.24443601 -0.06410161
0.21118896 0.18630895 0.4631535 -0.4769534 -0.37078872 0.57262826 -0.32222998 -0.31280515
0.23672646 0.19289891 -0.23870306 0.2955459 0.3254937 0.082090534 0.24556303 0.15149535
0.15518405 0.041884318 -0.17003901 0.2197262 0.13764834 0.34284845 -0.1955754 -0.55956906
-0.37558696 -0.56880623 0.3619679 -0.39936632 0.051050913 -0.21734864 0.43593454 0.52155167

conv10.bias f4 [64]
00000000: ac44 e9bd 5676 0b3f b853 ab3e a0c5 24be
00000010: c23b 83bd 67c0 33bd e744 97be 5420 953e
00000020: 978a 103f 98b1 4fbe fd24 cc3d 0bc0 fd3e
00000030: 1554 e93e 796b 11bf 1a5e cf3e bbf6 1f3d
00000040: 66c4 8cbd 22cf 713d 075e f1be eda1 a0be
00000050: 2d70 ba3d 4a6e ed3e c24c 09be 07e5 bc3e
00000060: c697 37bb 5434 0cbf fce1 c8be 64e1 fbbe
00000070: 5724 833d 1788 e23c 0874 34bd 77dd ecbe
00000080: d2d7 963d 38d6 843d 7b4e 7a3e c4be 84bd
00000090: 1de0 c0be 8148 0dbe b9d9 ee3c 33db 84bd
000000a0: ec68 86bd 69e5 e8be 6a65 e03d af39 b33e
000000b0: e280 d43e a343 143e f3dc 1d3e 7f9a 803e
000000c0: eb41 ef3e a4ef 363e 0376 0dbf c6e7 1d3e
000000d0: 1dee fe3e 8f54 0a3f 51ab 943e 86e2 063e
000000e0: c40e 10bf 6e0a 4ebd 1ec4 4a3c e83d b5be
000000f0: 26bb ed3e c626 efbe ed11 8c3c fc14 e4bd
-0.11390051 0.5447744 0.3346231 -0.16091013 -0.06407882 -0.04388466 -0.29544756 0.29126227
0.5646147 -0.2028259 0.099679925 0.4956058 0.45571962 -0.56804615 0.4050148 0.03905366
-0.068733975 0.059035428 -0.4714205 -0.3137354 0.09103427 0.46373206 -0.13408187 0.36893484
-0.0028014048 -0.54767346 -0.39234912 -0.49195397 0.06403416 0.027652783 -0.04405597 -0.46262714
0.07365383 0.064861715 0.24444 -0.06481698 -0.37670985 -0.1379719 0.029156553 -0.064871214
-0.06562981 -0.45487526 0.10956843 0.35004947 0.4150458 0.14478926 0.15416317 0.2511787
0.4672998 0.17864853 -0.55258197 0.15420446 0.4979104 0.54035276 0.29036954 0.1317235
-0.5627253 -0.050302915 0.01237586 -0.35398793 0.46431845 -0.4670927 0.017098391 -0.11136815

conv20.weight f4 [3, 16, 3, 3]
00000000: 6867 573d 56f1 b7b9 101b 08bd 2b23 5bbc
00000010: db9b e83c 8792 98bd 48ea 18bd 8b22 81bc
00000020: d6fb 11bc 769f 2b3d db75 443d 1628 593c
00000030: b046 46bd 46e9 953c 80e5 7cbb 6e1b 693d
00000040: 3b1e eb3c 235b 3fbd 9640 81bb 06c3 903c
00000050: 0b75 663d ab3e 81bc 048c 9c3d d04e 7e3d
00000060: 2b9f 05bc 20a4 443c b0b9 bc3c 6bdb c6bb
00000070: 20f0 7e3c 083d 60bd e03a 213d c8d1 95bd
00000080: c0bd d73b 18e0 1f3d 005b 9cbd b637 8b3d
00000090: 96c8 d3bc 5075 febc c6a8 aabd 1eb3 15bd
000000a0: bb01 46bd c3d3 8e3d abdd 923d 765d 54bc
000000b0: 5681 ddbc e074 9bbd d63a 573b 63e9 1dbd
000000c0: d606 a7bc e6ce 393d a645 393d 9868 19bd
000000d0: 0b1e ec3c f661 453d 08e9 15bd e080 6abc
000000e0: 7086 a1bc e68c c43c 6bd1 6b3c f083 833d
000000f0: d641 303c 7e6a 633d a47e 9a3d e7e1 a53d
00000100: 17ef 8fbd eb7e b4bb 3e80 6e3d 2b60 403d
00000110: 909c e3bc 7e8d 61bd e6c2 dbbc f032 b73c
00000120: 900b a6bc 0cb4 97bd eb16 c4bc 837f 8ebd
00000130: cc7e 843d d8e8 a43d cb88 a4bc 03b3 863d
00000140: 7b82 5ebd 8e7f 37bd b03e 99bc 16a4 613d
00000150: a637 5c3d 1ea5 323d 04aa 9c3d fee7 67bd
00000160: befc 7ebd 8ba7 5fbd e06a 24bd 004f 0e3d
00000170: eb23 863b 7366 073d 3372 01bd 63f3 373d
00000180: 1647 223c b866 26bd 7085 16bd 468f 78bd
00000190: 3ce6 a3bd e640 963d e09a 683d 06f7 ab3c
000001a0: c63f 3c3d 3673 533d daaa 983d 2662 30bd
000001b0: b3aa 063d 605a 53bd b6e1 293c 7b15 79bd
000001c0: aba5 7dbb 2bb6 80bb 2eb2 5ebd 13b5 4abd
000001d0: 40af 613d 78f2 2b3d d8c8 42bd ce42 8abd
000001e0: 53d1 063d abe2 ccbb 6088 10bc 3083 853c
000001f0: 7023 e53c 50d7 d5bc ebbb 173d 1be6 19bd
00000200: 8bad 77bd 2bc9 86bb d65c ae3b f62e 9bbc
00000210: 10ba 95bd 0ff5 a93d ebe7 b43c 437a 7dbd
00000220: 804c d53c 4b3c 8c3d 6af5 89bd f37a 39bd
00000230: 005a b33b eb0d 5a3c 80a3 19bc f347 55bd
00000240: 40e1 19bc 0bfb 15bc 9057 f53c b04a b4bc
00000250: 0a27 973d db07 2e3d 2499 8e3d 4651 89bd
00000260: 803b 673d 0b05 413c d615 02bb 36a9 e1bc
00000270: f665 a13d cb92 553c a050 913d 3091 9a3c
00000280: 7f72 853d b0b3 803c 6c88 a93d 5081 fa3c
00000290: 5a3a 833d 1008 97bd 5b00 04bd 40b4 38bc
000002a0: ee84 1abd 3bea 283d 96c8 71bd 5621 ab3b
000002b0: 1b99 443d a62a 4b3d 7603 9b3c 684d 34bd
000002c0: 9623 a1bc e060 8dbd 1006 a83d bb3b 643d
000002d0: d642 c73c f72d 893d 962d aebc 324b 9abd
000002e0: 2ba0 083b 2f07 853d 236e a13d a69b 893c
000002f0: ae3c 4a3d f6be 57bd f6d6 76bc 73b2 653d
00000300: b65a 003c 1eff 77bd b66b f3bc f0a6 7d3d
00000310: 167e edbc 38fe 953d 7e6c 94bd e6af aebc
00000320: 2bba 02bd 2eda 493d 1be4 943c 70be cabc
00000330: e0c5 33bc 804c 8d3c 8eab 053d a087 503d
00000340: 7089 743d b6ff 16bc 304e f4bc eb00 7d3c
00000350: 3be5 e93c 363c 2f3c 635e 47bd 6c3e 88bd
00000360: ba22 9ebd 43f9 363d ab21 1e3c b020 9d3d
00000370: a606 9c3c 1876 123d 3624 5dbd 58a7 6c3d
00000380: 8b4d 2d3d 9289 9f3d ebf0 babc 1853 2fbd
00000390: 7c2f 96bd 86e6 80bc 9eef 3a3d 2f39 9d3d
000003a0: e848 63bd 08b5 40bd 7b64 90bd 3e0e 99bd
000003b0: 00d9 f3ba 9cf2 a03d e6f3 633d ac0a 83bd
000003c0: 20ed c53c 76b5 f23c 487e 5b3d f883 073d
000003d0: 5642 233c 06a9 62bd 5631 7dbd 7b49 23bd
000003e0: 2045 a53d 6b72 59bc d83f 093d 9610 a3bb
000003f0: 4c24 a9bd 50ea 06bd 1bd6 793d b6c9 64bc
0.05258885 -0.0003508429 -0.033228934 -0.013375084 0.02839463 -0.07449823 -0.037332803 -0.015763542
-0.00891014 0.04190012 0.04796396 0.013254186 -0.048407257 0.01829971 -0.003858894 0.056910925
0.028700938 -0.046717774 -0.003944467 0.01767112 0.056263965 -0.015776953 0.07643893 0.06208688
-0.008155624 0.012002021 0.023037761 -0.006068637 0.01556018 -0.054745704 0.03936279 -0.07315403
0.0065838993 0.03903207 -0.076345444 0.067977354 -0.025852483 -0.031061798 -0.08332972 -0.036547773
-0.048341494 0.06973984 0.07171186 -0.012961736 -0.027039211 -0.075906515 0.0032841465 -0.038552653
-0.020389002 0.04536333 0.045232438 -0.037453264 0.02882292 0.048189126 -0.03659919 -0.014312953
-0.019717425 0.023992967 0.014393191 0.064216495 0.010757884 0.05552148 0.07543686 0.08099728
-0.07028025 -0.005508294 0.05822777 0.046966713 -0.027784616 -0.055066578 -0.026826333 0.022363156
-0.020269185 -0.07407388 -0.02393671 -0.06957915 0.06469497 0.08052224 -0.02008476 0.065771125
-0.054323655 -0.04479938 -0.01870665 0.055088125 0.053764008 0.0436145 0.076496154 -0.05661773
-0.062252752 -0.05460314 -0.040140986 0.03474331 0.004093637 0.033056688 -0.03160305 0.044909846
0.0099046435 -0.040625304 -0.03674835 -0.06068351 -0.08002898 0.07336597 0.056788325 0.020991813
0.045959257 0.051623546 0.07454462 -0.04306235 0.032877635 -0.05159986 0.010368755 -0.0608115
-0.0038703482 -0.003927966 -0.054369144 -0.049489092 0.055098772 0.041979283 -0.04755482 -0.06751023
0.03291447 -0.006252607 -0.008821577 0.016297907 0.027971 -0.026103646 0.037044447 -0.03757296
-0.060468238 -0.0041133366 0.0053211255 -0.018943291 -0.07310879 0.08298694 0.022083243 -0.061884176
0.026037455 0.068474375 -0.06736262 -0.04528327 0.0054733753 0.013308982 -0.00937736 -0.05207057
-0.009392083 -0.009154092 0.02994898 -0.02200827 0.07380493 0.04248796 0.06962803 -0.06704955
0.056453228 0.0117809875 -0.001984944 -0.027546506 0.07880776 0.013035486 0.07095456 0.018868059
0.06515979 0.015710682 0.082779735 0.03057924 0.06407614 -0.07374585 -0.0322269 -0.011273444
-0.037724428 0.041239005 -0.059029184 0.00522248 0.047997575 0.04960122 0.018922549 -0.044019133
-0.019670289 -0.06903243 0.08204281 0.055721026 0.024323862 0.0669822 -0.021261971 -0.075338736
0.002084742 0.06495511 0.07882335 0.016797852 0.049374275 -0.05267235 -0.015065899 0.056078386
0.007834127 -0.060546033 -0.029714447 0.061926782 -0.028990787 0.07323879 -0.07247256 -0.02132411
-0.031915825 0.049280338 0.018175175 -0.02474901 -0.01097247 0.017248392 0.03263431 0.050910592
0.059701383 -0.00921624 -0.029822439 0.015442113 0.028551688 0.010695508 -0.048674 -0.06652531
-0.07721467 0.04467131 0.009651582 0.0767225 0.019046139 0.035757154 -0.05398961 0.05777678
0.04231028 0.07789911 -0.022819957 -0.042803854 -0.07333276 -0.015734922 0.045638673 0.076769225
-0.05548945 -0.047047645 -0.07050415 -0.074734196 -0.00186041 0.07858774 0.05565252 -0.0639852
0.024160922 0.029627543 0.053587228 0.03308484 0.009964546 -0.055336975 -0.06181463 -0.039865
0.08069825 -0.013271908 0.03350815 -0.0049763424 -0.08258876 -0.0329383 0.060995203 -0.013964107

conv20.bias f4 [3]
00000000: 80b2 103c 8005 633d eb43 00bd
0.00883162 0.055425167 -0.03131477
